{"format": "graph-model", "generatedBy": "2.9.0", "convertedBy": "TensorFlow.js Converter v3.18.0", "signature": {"inputs": {"x": {"name": "x:0", "dtype": "DT_FLOAT", "tensorShape": {"dim": [{"size": "1"}, {"size": "320"}, {"size": "320"}, {"size": "3"}]}}}, "outputs": {"output_0": {"name": "Identity:0", "dtype": "DT_FLOAT", "tensorShape": {"dim": [{"size": "1"}, {"size": "6300"}, {"size": "17"}]}}}}, "modelTopology": {"node": [{"name": "PartitionedCall/PartitionedCall/model/tf_detect/strided_slice_3/stack", "op": "Const", "attr": {"dtype": {"type": "DT_INT32"}, "value": {"tensor": {"dtype": "DT_INT32", "tensorShape": {"dim": [{"size": "2"}]}}}}}, {"name": "PartitionedCall/PartitionedCall/model/tf_detect/strided_slice_3/stack_1", "op": "Const", "attr": {"dtype": {"type": "DT_INT32"}, "value": {"tensor": {"dtype": "DT_INT32", "tensorShape": {"dim": [{"size": "2"}]}}}}}, {"name": "PartitionedCall/PartitionedCall/model/tf_detect/strided_slice_3/stack_2", "op": "Const", "attr": {"dtype": {"type": "DT_INT32"}, "value": {"tensor": {"dtype": "DT_INT32", "tensorShape": {"dim": [{"size": "2"}]}}}}}, {"name": "PartitionedCall/PartitionedCall/model/tf_detect/mul_2/y", "op": "Const", "attr": {"dtype": {"type": "DT_FLOAT"}, "value": {"tensor": {"dtype": "DT_FLOAT", "tensorShape": {}}}}}, {"name": "PartitionedCall/PartitionedCall/model/tf_detect/sub", "op": "Const", "attr": {"dtype": {"type": "DT_FLOAT"}, "value": {"tensor": {"dtype": "DT_FLOAT", "tensorShape": {"dim": [{"size": "1"}, {"size": "1600"}, {"size": "1"}, {"size": "2"}]}}}}}, {"name": "PartitionedCall/PartitionedCall/model/tf_detect/mul_3", "op": "Const", "attr": {"dtype": {"type": "DT_FLOAT"}, "value": {"tensor": {"dtype": "DT_FLOAT", "tensorShape": {"dim": [{"size": "1"}, {"size": "2"}]}}}}}, {"name": "PartitionedCall/PartitionedCall/model/tf_detect/strided_slice_5/stack", "op": "Const", "attr": {"dtype": {"type": "DT_INT32"}, "value": {"tensor": {"dtype": "DT_INT32", "tensorShape": {"dim": [{"size": "2"}]}}}}}, {"name": "PartitionedCall/PartitionedCall/model/tf_detect/strided_slice_5/stack_1", "op": "Const", "attr": {"dtype": {"type": "DT_INT32"}, "value": {"tensor": {"dtype": "DT_INT32", "tensorShape": {"dim": [{"size": "2"}]}}}}}, {"name": "PartitionedCall/PartitionedCall/model/tf_detect/strided_slice_5/stack_2", "op": "Const", "attr": {"dtype": {"type": "DT_INT32"}, "value": {"tensor": {"dtype": "DT_INT32", "tensorShape": {"dim": [{"size": "2"}]}}}}}, {"name": "PartitionedCall/PartitionedCall/model/tf_detect/mul_4", "op": "Const", "attr": {"dtype": {"type": "DT_FLOAT"}, "value": {"tensor": {"dtype": "DT_FLOAT", "tensorShape": {"dim": [{"size": "1"}, {"size": "1"}, {"size": "3"}, {"size": "2"}]}}}}}, {"name": "PartitionedCall/PartitionedCall/model/tf_detect/tf_conv2d/conv2d_57/Conv2D/ReadVariableOp", "op": "Const", "attr": {"dtype": {"type": "DT_FLOAT"}, "value": {"tensor": {"dtype": "DT_FLOAT", "tensorShape": {"dim": [{"size": "1"}, {"size": "1"}, {"size": "64"}, {"size": "51"}]}}}}}, {"name": "PartitionedCall/PartitionedCall/model/tf_detect/tf_conv2d/conv2d_57/BiasAdd/ReadVariableOp", "op": "Const", "attr": {"dtype": {"type": "DT_FLOAT"}, "value": {"tensor": {"dtype": "DT_FLOAT", "tensorShape": {"dim": [{"size": "51"}]}}}}}, {"name": "PartitionedCall/PartitionedCall/model/tf_detect/Reshape/shape_1", "op": "Const", "attr": {"dtype": {"type": "DT_INT32"}, "value": {"tensor": {"dtype": "DT_INT32", "tensorShape": {"dim": [{"size": "4"}]}}}}}, {"name": "PartitionedCall/PartitionedCall/model/tf_detect/strided_slice_6/stack", "op": "Const", "attr": {"dtype": {"type": "DT_INT32"}, "value": {"tensor": {"dtype": "DT_INT32", "tensorShape": {"dim": [{"size": "2"}]}}}}}, {"name": "PartitionedCall/PartitionedCall/model/tf_detect/strided_slice_6/stack_1", "op": "Const", "attr": {"dtype": {"type": "DT_INT32"}, "value": {"tensor": {"dtype": "DT_INT32", "tensorShape": {"dim": [{"size": "2"}]}}}}}, {"name": "PartitionedCall/PartitionedCall/model/tf_detect/strided_slice_6/stack_2", "op": "Const", "attr": {"dtype": {"type": "DT_INT32"}, "value": {"tensor": {"dtype": "DT_INT32", "tensorShape": {"dim": [{"size": "2"}]}}}}}, {"name": "PartitionedCall/PartitionedCall/model/tf_detect/concat/axis", "op": "Const", "attr": {"dtype": {"type": "DT_INT32"}, "value": {"tensor": {"dtype": "DT_INT32", "tensorShape": {}}}}}, {"name": "PartitionedCall/PartitionedCall/model/tf_detect/Reshape_1/shape_1", "op": "Const", "attr": {"value": {"tensor": {"dtype": "DT_INT32", "tensorShape": {"dim": [{"size": "3"}]}}}, "dtype": {"type": "DT_INT32"}}}, {"name": "PartitionedCall/PartitionedCall/model/tf_detect/strided_slice_10/stack", "op": "Const", "attr": {"dtype": {"type": "DT_INT32"}, "value": {"tensor": {"dtype": "DT_INT32", "tensorShape": {"dim": [{"size": "2"}]}}}}}, {"name": "PartitionedCall/PartitionedCall/model/tf_detect/strided_slice_10/stack_1", "op": "Const", "attr": {"value": {"tensor": {"dtype": "DT_INT32", "tensorShape": {"dim": [{"size": "2"}]}}}, "dtype": {"type": "DT_INT32"}}}, {"name": "PartitionedCall/PartitionedCall/model/tf_detect/strided_slice_10/stack_2", "op": "Const", "attr": {"dtype": {"type": "DT_INT32"}, "value": {"tensor": {"dtype": "DT_INT32", "tensorShape": {"dim": [{"size": "2"}]}}}}}, {"name": "PartitionedCall/PartitionedCall/model/tf_detect/mul_9/y", "op": "Const", "attr": {"dtype": {"type": "DT_FLOAT"}, "value": {"tensor": {"dtype": "DT_FLOAT", "tensorShape": {}}}}}, {"name": "PartitionedCall/PartitionedCall/model/tf_detect/sub_1", "op": "Const", "attr": {"dtype": {"type": "DT_FLOAT"}, "value": {"tensor": {"dtype": "DT_FLOAT", "tensorShape": {"dim": [{"size": "1"}, {"size": "400"}, {"size": "1"}, {"size": "2"}]}}}}}, {"name": "PartitionedCall/PartitionedCall/model/tf_detect/mul_10", "op": "Const", "attr": {"dtype": {"type": "DT_FLOAT"}, "value": {"tensor": {"dtype": "DT_FLOAT", "tensorShape": {"dim": [{"size": "1"}, {"size": "2"}]}}}}}, {"name": "PartitionedCall/PartitionedCall/model/tf_detect/strided_slice_12/stack", "op": "Const", "attr": {"dtype": {"type": "DT_INT32"}, "value": {"tensor": {"dtype": "DT_INT32", "tensorShape": {"dim": [{"size": "2"}]}}}}}, {"name": "PartitionedCall/PartitionedCall/model/tf_detect/strided_slice_12/stack_1", "op": "Const", "attr": {"dtype": {"type": "DT_INT32"}, "value": {"tensor": {"dtype": "DT_INT32", "tensorShape": {"dim": [{"size": "2"}]}}}}}, {"name": "PartitionedCall/PartitionedCall/model/tf_detect/strided_slice_12/stack_2", "op": "Const", "attr": {"dtype": {"type": "DT_INT32"}, "value": {"tensor": {"dtype": "DT_INT32", "tensorShape": {"dim": [{"size": "2"}]}}}}}, {"name": "PartitionedCall/PartitionedCall/model/tf_detect/mul_11", "op": "Const", "attr": {"dtype": {"type": "DT_FLOAT"}, "value": {"tensor": {"dtype": "DT_FLOAT", "tensorShape": {"dim": [{"size": "1"}, {"size": "1"}, {"size": "3"}, {"size": "2"}]}}}}}, {"name": "PartitionedCall/PartitionedCall/model/tf_detect/tf_conv2d_1/conv2d_58/Conv2D/ReadVariableOp", "op": "Const", "attr": {"dtype": {"type": "DT_FLOAT"}, "value": {"tensor": {"dtype": "DT_FLOAT", "tensorShape": {"dim": [{"size": "1"}, {"size": "1"}, {"size": "128"}, {"size": "51"}]}}}}}, {"name": "PartitionedCall/PartitionedCall/model/tf_detect/tf_conv2d_1/conv2d_58/BiasAdd/ReadVariableOp", "op": "Const", "attr": {"dtype": {"type": "DT_FLOAT"}, "value": {"tensor": {"dtype": "DT_FLOAT", "tensorShape": {"dim": [{"size": "51"}]}}}}}, {"name": "PartitionedCall/PartitionedCall/model/tf_detect/Reshape_2/shape_1", "op": "Const", "attr": {"dtype": {"type": "DT_INT32"}, "value": {"tensor": {"dtype": "DT_INT32", "tensorShape": {"dim": [{"size": "4"}]}}}}}, {"name": "PartitionedCall/PartitionedCall/model/tf_detect/strided_slice_13/stack", "op": "Const", "attr": {"dtype": {"type": "DT_INT32"}, "value": {"tensor": {"dtype": "DT_INT32", "tensorShape": {"dim": [{"size": "2"}]}}}}}, {"name": "PartitionedCall/PartitionedCall/model/tf_detect/strided_slice_13/stack_1", "op": "Const", "attr": {"dtype": {"type": "DT_INT32"}, "value": {"tensor": {"dtype": "DT_INT32", "tensorShape": {"dim": [{"size": "2"}]}}}}}, {"name": "PartitionedCall/PartitionedCall/model/tf_detect/strided_slice_13/stack_2", "op": "Const", "attr": {"dtype": {"type": "DT_INT32"}, "value": {"tensor": {"dtype": "DT_INT32", "tensorShape": {"dim": [{"size": "2"}]}}}}}, {"name": "PartitionedCall/PartitionedCall/model/tf_detect/concat_1/axis", "op": "Const", "attr": {"dtype": {"type": "DT_INT32"}, "value": {"tensor": {"dtype": "DT_INT32", "tensorShape": {}}}}}, {"name": "PartitionedCall/PartitionedCall/model/tf_detect/Reshape_3/shape_1", "op": "Const", "attr": {"dtype": {"type": "DT_INT32"}, "value": {"tensor": {"dtype": "DT_INT32", "tensorShape": {"dim": [{"size": "3"}]}}}}}, {"name": "PartitionedCall/PartitionedCall/model/tf_detect/strided_slice_17/stack", "op": "Const", "attr": {"value": {"tensor": {"dtype": "DT_INT32", "tensorShape": {"dim": [{"size": "2"}]}}}, "dtype": {"type": "DT_INT32"}}}, {"name": "PartitionedCall/PartitionedCall/model/tf_detect/strided_slice_17/stack_1", "op": "Const", "attr": {"dtype": {"type": "DT_INT32"}, "value": {"tensor": {"dtype": "DT_INT32", "tensorShape": {"dim": [{"size": "2"}]}}}}}, {"name": "PartitionedCall/PartitionedCall/model/tf_detect/strided_slice_17/stack_2", "op": "Const", "attr": {"dtype": {"type": "DT_INT32"}, "value": {"tensor": {"dtype": "DT_INT32", "tensorShape": {"dim": [{"size": "2"}]}}}}}, {"name": "PartitionedCall/PartitionedCall/model/tf_detect/mul_16/y", "op": "Const", "attr": {"dtype": {"type": "DT_FLOAT"}, "value": {"tensor": {"dtype": "DT_FLOAT", "tensorShape": {}}}}}, {"name": "PartitionedCall/PartitionedCall/model/tf_detect/sub_2", "op": "Const", "attr": {"dtype": {"type": "DT_FLOAT"}, "value": {"tensor": {"dtype": "DT_FLOAT", "tensorShape": {"dim": [{"size": "1"}, {"size": "100"}, {"size": "1"}, {"size": "2"}]}}}}}, {"name": "PartitionedCall/PartitionedCall/model/tf_detect/mul_17", "op": "Const", "attr": {"value": {"tensor": {"dtype": "DT_FLOAT", "tensorShape": {"dim": [{"size": "1"}, {"size": "2"}]}}}, "dtype": {"type": "DT_FLOAT"}}}, {"name": "PartitionedCall/PartitionedCall/model/tf_detect/strided_slice_19/stack", "op": "Const", "attr": {"dtype": {"type": "DT_INT32"}, "value": {"tensor": {"dtype": "DT_INT32", "tensorShape": {"dim": [{"size": "2"}]}}}}}, {"name": "PartitionedCall/PartitionedCall/model/tf_detect/strided_slice_19/stack_1", "op": "Const", "attr": {"dtype": {"type": "DT_INT32"}, "value": {"tensor": {"dtype": "DT_INT32", "tensorShape": {"dim": [{"size": "2"}]}}}}}, {"name": "PartitionedCall/PartitionedCall/model/tf_detect/strided_slice_19/stack_2", "op": "Const", "attr": {"dtype": {"type": "DT_INT32"}, "value": {"tensor": {"dtype": "DT_INT32", "tensorShape": {"dim": [{"size": "2"}]}}}}}, {"name": "PartitionedCall/PartitionedCall/model/tf_detect/mul_18", "op": "Const", "attr": {"dtype": {"type": "DT_FLOAT"}, "value": {"tensor": {"dtype": "DT_FLOAT", "tensorShape": {"dim": [{"size": "1"}, {"size": "1"}, {"size": "3"}, {"size": "2"}]}}}}}, {"name": "PartitionedCall/PartitionedCall/model/tfc3_7/tf_conv_52/conv2d_52/Conv2D/ReadVariableOp", "op": "Const", "attr": {"dtype": {"type": "DT_FLOAT"}, "value": {"tensor": {"dtype": "DT_FLOAT", "tensorShape": {"dim": [{"size": "1"}, {"size": "1"}, {"size": "256"}, {"size": "128"}]}}}}}, {"name": "PartitionedCall/PartitionedCall/model/tfc3_7/tf_conv_52/conv2d_52/BiasAdd/ReadVariableOp", "op": "Const", "attr": {"dtype": {"type": "DT_FLOAT"}, "value": {"tensor": {"dtype": "DT_FLOAT", "tensorShape": {"dim": [{"size": "128"}]}}}}}, {"name": "PartitionedCall/PartitionedCall/model/tfc3_7/sequential_14/tf_bottleneck_10/tf_conv_55/conv2d_55/Conv2D/ReadVariableOp", "op": "Const", "attr": {"dtype": {"type": "DT_FLOAT"}, "value": {"tensor": {"dtype": "DT_FLOAT", "tensorShape": {"dim": [{"size": "1"}, {"size": "1"}, {"size": "128"}, {"size": "128"}]}}}}}, {"name": "PartitionedCall/PartitionedCall/model/tfc3_7/sequential_14/tf_bottleneck_10/tf_conv_55/conv2d_55/BiasAdd/ReadVariableOp", "op": "Const", "attr": {"dtype": {"type": "DT_FLOAT"}, "value": {"tensor": {"dtype": "DT_FLOAT", "tensorShape": {"dim": [{"size": "128"}]}}}}}, {"name": "PartitionedCall/PartitionedCall/model/tfc3_7/sequential_14/tf_bottleneck_10/tf_conv_56/conv2d_56/Conv2D/ReadVariableOp", "op": "Const", "attr": {"dtype": {"type": "DT_FLOAT"}, "value": {"tensor": {"dtype": "DT_FLOAT", "tensorShape": {"dim": [{"size": "3"}, {"size": "3"}, {"size": "128"}, {"size": "128"}]}}}}}, {"name": "PartitionedCall/PartitionedCall/model/tfc3_7/sequential_14/tf_bottleneck_10/tf_conv_56/conv2d_56/BiasAdd/ReadVariableOp", "op": "Const", "attr": {"dtype": {"type": "DT_FLOAT"}, "value": {"tensor": {"dtype": "DT_FLOAT", "tensorShape": {"dim": [{"size": "128"}]}}}}}, {"name": "PartitionedCall/PartitionedCall/model/tfc3_6/tf_conv_46/conv2d_46/Conv2D/ReadVariableOp", "op": "Const", "attr": {"dtype": {"type": "DT_FLOAT"}, "value": {"tensor": {"dtype": "DT_FLOAT", "tensorShape": {"dim": [{"size": "1"}, {"size": "1"}, {"size": "128"}, {"size": "64"}]}}}}}, {"name": "PartitionedCall/PartitionedCall/model/tfc3_6/tf_conv_46/conv2d_46/BiasAdd/ReadVariableOp", "op": "Const", "attr": {"dtype": {"type": "DT_FLOAT"}, "value": {"tensor": {"dtype": "DT_FLOAT", "tensorShape": {"dim": [{"size": "64"}]}}}}}, {"name": "PartitionedCall/PartitionedCall/model/tfc3_6/sequential_12/tf_bottleneck_9/tf_conv_49/conv2d_49/Conv2D/ReadVariableOp", "op": "Const", "attr": {"dtype": {"type": "DT_FLOAT"}, "value": {"tensor": {"dtype": "DT_FLOAT", "tensorShape": {"dim": [{"size": "1"}, {"size": "1"}, {"size": "64"}, {"size": "64"}]}}}}}, {"name": "PartitionedCall/PartitionedCall/model/tfc3_6/sequential_12/tf_bottleneck_9/tf_conv_49/conv2d_49/BiasAdd/ReadVariableOp", "op": "Const", "attr": {"dtype": {"type": "DT_FLOAT"}, "value": {"tensor": {"dtype": "DT_FLOAT", "tensorShape": {"dim": [{"size": "64"}]}}}}}, {"name": "PartitionedCall/PartitionedCall/model/tfc3_6/sequential_12/tf_bottleneck_9/tf_conv_50/conv2d_50/Conv2D/ReadVariableOp", "op": "Const", "attr": {"dtype": {"type": "DT_FLOAT"}, "value": {"tensor": {"dtype": "DT_FLOAT", "tensorShape": {"dim": [{"size": "3"}, {"size": "3"}, {"size": "64"}, {"size": "64"}]}}}}}, {"name": "PartitionedCall/PartitionedCall/model/tfc3_6/sequential_12/tf_bottleneck_9/tf_conv_50/conv2d_50/BiasAdd/ReadVariableOp", "op": "Const", "attr": {"dtype": {"type": "DT_FLOAT"}, "value": {"tensor": {"dtype": "DT_FLOAT", "tensorShape": {"dim": [{"size": "64"}]}}}}}, {"name": "PartitionedCall/PartitionedCall/model/tfc3_5/tf_conv_40/conv2d_40/Conv2D/ReadVariableOp", "op": "Const", "attr": {"dtype": {"type": "DT_FLOAT"}, "value": {"tensor": {"dtype": "DT_FLOAT", "tensorShape": {"dim": [{"size": "1"}, {"size": "1"}, {"size": "128"}, {"size": "32"}]}}}}}, {"name": "PartitionedCall/PartitionedCall/model/tfc3_5/tf_conv_40/conv2d_40/BiasAdd/ReadVariableOp", "op": "Const", "attr": {"dtype": {"type": "DT_FLOAT"}, "value": {"tensor": {"dtype": "DT_FLOAT", "tensorShape": {"dim": [{"size": "32"}]}}}}}, {"name": "PartitionedCall/PartitionedCall/model/tfc3_5/sequential_10/tf_bottleneck_8/tf_conv_43/conv2d_43/Conv2D/ReadVariableOp", "op": "Const", "attr": {"dtype": {"type": "DT_FLOAT"}, "value": {"tensor": {"dtype": "DT_FLOAT", "tensorShape": {"dim": [{"size": "1"}, {"size": "1"}, {"size": "32"}, {"size": "32"}]}}}}}, {"name": "PartitionedCall/PartitionedCall/model/tfc3_5/sequential_10/tf_bottleneck_8/tf_conv_43/conv2d_43/BiasAdd/ReadVariableOp", "op": "Const", "attr": {"dtype": {"type": "DT_FLOAT"}, "value": {"tensor": {"dtype": "DT_FLOAT", "tensorShape": {"dim": [{"size": "32"}]}}}}}, {"name": "PartitionedCall/PartitionedCall/model/tfc3_5/sequential_10/tf_bottleneck_8/tf_conv_44/conv2d_44/Conv2D/ReadVariableOp", "op": "Const", "attr": {"dtype": {"type": "DT_FLOAT"}, "value": {"tensor": {"dtype": "DT_FLOAT", "tensorShape": {"dim": [{"size": "3"}, {"size": "3"}, {"size": "32"}, {"size": "32"}]}}}}}, {"name": "PartitionedCall/PartitionedCall/model/tfc3_5/sequential_10/tf_bottleneck_8/tf_conv_44/conv2d_44/BiasAdd/ReadVariableOp", "op": "Const", "attr": {"dtype": {"type": "DT_FLOAT"}, "value": {"tensor": {"dtype": "DT_FLOAT", "tensorShape": {"dim": [{"size": "32"}]}}}}}, {"name": "PartitionedCall/PartitionedCall/model/tf_upsample_1/resize/size", "op": "Const", "attr": {"dtype": {"type": "DT_INT32"}, "value": {"tensor": {"dtype": "DT_INT32", "tensorShape": {"dim": [{"size": "2"}]}}}}}, {"name": "PartitionedCall/PartitionedCall/model/tf_concat_1/concat/axis", "op": "Const", "attr": {"dtype": {"type": "DT_INT32"}, "value": {"tensor": {"dtype": "DT_INT32", "tensorShape": {}}}}}, {"name": "PartitionedCall/PartitionedCall/model/tfc3_5/tf_conv_41/conv2d_41/Conv2D/ReadVariableOp", "op": "Const", "attr": {"dtype": {"type": "DT_FLOAT"}, "value": {"tensor": {"dtype": "DT_FLOAT", "tensorShape": {"dim": [{"size": "1"}, {"size": "1"}, {"size": "128"}, {"size": "32"}]}}}}}, {"name": "PartitionedCall/PartitionedCall/model/tfc3_5/tf_conv_41/conv2d_41/BiasAdd/ReadVariableOp", "op": "Const", "attr": {"dtype": {"type": "DT_FLOAT"}, "value": {"tensor": {"dtype": "DT_FLOAT", "tensorShape": {"dim": [{"size": "32"}]}}}}}, {"name": "PartitionedCall/PartitionedCall/model/tfc3_5/concat/axis", "op": "Const", "attr": {"dtype": {"type": "DT_INT32"}, "value": {"tensor": {"dtype": "DT_INT32", "tensorShape": {}}}}}, {"name": "PartitionedCall/PartitionedCall/model/tfc3_5/tf_conv_42/conv2d_42/Conv2D/ReadVariableOp", "op": "Const", "attr": {"value": {"tensor": {"dtype": "DT_FLOAT", "tensorShape": {"dim": [{"size": "1"}, {"size": "1"}, {"size": "64"}, {"size": "64"}]}}}, "dtype": {"type": "DT_FLOAT"}}}, {"name": "PartitionedCall/PartitionedCall/model/tfc3_5/tf_conv_42/conv2d_42/BiasAdd/ReadVariableOp", "op": "Const", "attr": {"dtype": {"type": "DT_FLOAT"}, "value": {"tensor": {"dtype": "DT_FLOAT", "tensorShape": {"dim": [{"size": "64"}]}}}}}, {"name": "PartitionedCall/PartitionedCall/model/tf_conv_45/sequential_11/tf_pad_5/Pad/paddings", "op": "Const", "attr": {"dtype": {"type": "DT_INT32"}, "value": {"tensor": {"dtype": "DT_INT32", "tensorShape": {"dim": [{"size": "4"}, {"size": "2"}]}}}}}, {"name": "PartitionedCall/PartitionedCall/model/tf_conv_45/sequential_11/conv2d_45/Conv2D/ReadVariableOp", "op": "Const", "attr": {"dtype": {"type": "DT_FLOAT"}, "value": {"tensor": {"dtype": "DT_FLOAT", "tensorShape": {"dim": [{"size": "3"}, {"size": "3"}, {"size": "64"}, {"size": "64"}]}}}}}, {"name": "PartitionedCall/PartitionedCall/model/tf_conv_45/sequential_11/conv2d_45/BiasAdd/ReadVariableOp", "op": "Const", "attr": {"dtype": {"type": "DT_FLOAT"}, "value": {"tensor": {"dtype": "DT_FLOAT", "tensorShape": {"dim": [{"size": "64"}]}}}}}, {"name": "PartitionedCall/PartitionedCall/model/tfc3_4/tf_conv_34/conv2d_34/Conv2D/ReadVariableOp", "op": "Const", "attr": {"dtype": {"type": "DT_FLOAT"}, "value": {"tensor": {"dtype": "DT_FLOAT", "tensorShape": {"dim": [{"size": "1"}, {"size": "1"}, {"size": "256"}, {"size": "64"}]}}}}}, {"name": "PartitionedCall/PartitionedCall/model/tfc3_4/tf_conv_34/conv2d_34/BiasAdd/ReadVariableOp", "op": "Const", "attr": {"dtype": {"type": "DT_FLOAT"}, "value": {"tensor": {"dtype": "DT_FLOAT", "tensorShape": {"dim": [{"size": "64"}]}}}}}, {"name": "PartitionedCall/PartitionedCall/model/tfc3_4/sequential_9/tf_bottleneck_7/tf_conv_37/conv2d_37/Conv2D/ReadVariableOp", "op": "Const", "attr": {"value": {"tensor": {"dtype": "DT_FLOAT", "tensorShape": {"dim": [{"size": "1"}, {"size": "1"}, {"size": "64"}, {"size": "64"}]}}}, "dtype": {"type": "DT_FLOAT"}}}, {"name": "PartitionedCall/PartitionedCall/model/tfc3_4/sequential_9/tf_bottleneck_7/tf_conv_37/conv2d_37/BiasAdd/ReadVariableOp", "op": "Const", "attr": {"value": {"tensor": {"dtype": "DT_FLOAT", "tensorShape": {"dim": [{"size": "64"}]}}}, "dtype": {"type": "DT_FLOAT"}}}, {"name": "PartitionedCall/PartitionedCall/model/tfc3_4/sequential_9/tf_bottleneck_7/tf_conv_38/conv2d_38/Conv2D/ReadVariableOp", "op": "Const", "attr": {"value": {"tensor": {"dtype": "DT_FLOAT", "tensorShape": {"dim": [{"size": "3"}, {"size": "3"}, {"size": "64"}, {"size": "64"}]}}}, "dtype": {"type": "DT_FLOAT"}}}, {"name": "PartitionedCall/PartitionedCall/model/tfc3_4/sequential_9/tf_bottleneck_7/tf_conv_38/conv2d_38/BiasAdd/ReadVariableOp", "op": "Const", "attr": {"dtype": {"type": "DT_FLOAT"}, "value": {"tensor": {"dtype": "DT_FLOAT", "tensorShape": {"dim": [{"size": "64"}]}}}}}, {"name": "PartitionedCall/PartitionedCall/model/tf_upsample/resize/size", "op": "Const", "attr": {"value": {"tensor": {"dtype": "DT_INT32", "tensorShape": {"dim": [{"size": "2"}]}}}, "dtype": {"type": "DT_INT32"}}}, {"name": "PartitionedCall/PartitionedCall/model/tf_concat/concat/axis", "op": "Const", "attr": {"dtype": {"type": "DT_INT32"}, "value": {"tensor": {"dtype": "DT_INT32", "tensorShape": {}}}}}, {"name": "PartitionedCall/PartitionedCall/model/tfc3_4/tf_conv_35/conv2d_35/Conv2D/ReadVariableOp", "op": "Const", "attr": {"dtype": {"type": "DT_FLOAT"}, "value": {"tensor": {"dtype": "DT_FLOAT", "tensorShape": {"dim": [{"size": "1"}, {"size": "1"}, {"size": "256"}, {"size": "64"}]}}}}}, {"name": "PartitionedCall/PartitionedCall/model/tfc3_4/tf_conv_35/conv2d_35/BiasAdd/ReadVariableOp", "op": "Const", "attr": {"dtype": {"type": "DT_FLOAT"}, "value": {"tensor": {"dtype": "DT_FLOAT", "tensorShape": {"dim": [{"size": "64"}]}}}}}, {"name": "PartitionedCall/PartitionedCall/model/tfc3_4/concat/axis", "op": "Const", "attr": {"dtype": {"type": "DT_INT32"}, "value": {"tensor": {"dtype": "DT_INT32", "tensorShape": {}}}}}, {"name": "PartitionedCall/PartitionedCall/model/tfc3_4/tf_conv_36/conv2d_36/Conv2D/ReadVariableOp", "op": "Const", "attr": {"dtype": {"type": "DT_FLOAT"}, "value": {"tensor": {"dtype": "DT_FLOAT", "tensorShape": {"dim": [{"size": "1"}, {"size": "1"}, {"size": "128"}, {"size": "128"}]}}}}}, {"name": "PartitionedCall/PartitionedCall/model/tfc3_4/tf_conv_36/conv2d_36/BiasAdd/ReadVariableOp", "op": "Const", "attr": {"dtype": {"type": "DT_FLOAT"}, "value": {"tensor": {"dtype": "DT_FLOAT", "tensorShape": {"dim": [{"size": "128"}]}}}}}, {"name": "PartitionedCall/PartitionedCall/model/tf_conv_39/conv2d_39/Conv2D/ReadVariableOp", "op": "Const", "attr": {"dtype": {"type": "DT_FLOAT"}, "value": {"tensor": {"dtype": "DT_FLOAT", "tensorShape": {"dim": [{"size": "1"}, {"size": "1"}, {"size": "128"}, {"size": "64"}]}}}}}, {"name": "PartitionedCall/PartitionedCall/model/tf_conv_39/conv2d_39/BiasAdd/ReadVariableOp", "op": "Const", "attr": {"value": {"tensor": {"dtype": "DT_FLOAT", "tensorShape": {"dim": [{"size": "64"}]}}}, "dtype": {"type": "DT_FLOAT"}}}, {"name": "PartitionedCall/PartitionedCall/model/tf_concat_2/concat/axis", "op": "Const", "attr": {"dtype": {"type": "DT_INT32"}, "value": {"tensor": {"dtype": "DT_INT32", "tensorShape": {}}}}}, {"name": "PartitionedCall/PartitionedCall/model/tfc3_6/tf_conv_47/conv2d_47/Conv2D/ReadVariableOp", "op": "Const", "attr": {"dtype": {"type": "DT_FLOAT"}, "value": {"tensor": {"dtype": "DT_FLOAT", "tensorShape": {"dim": [{"size": "1"}, {"size": "1"}, {"size": "128"}, {"size": "64"}]}}}}}, {"name": "PartitionedCall/PartitionedCall/model/tfc3_6/tf_conv_47/conv2d_47/BiasAdd/ReadVariableOp", "op": "Const", "attr": {"dtype": {"type": "DT_FLOAT"}, "value": {"tensor": {"dtype": "DT_FLOAT", "tensorShape": {"dim": [{"size": "64"}]}}}}}, {"name": "PartitionedCall/PartitionedCall/model/tfc3_6/concat/axis", "op": "Const", "attr": {"dtype": {"type": "DT_INT32"}, "value": {"tensor": {"dtype": "DT_INT32", "tensorShape": {}}}}}, {"name": "PartitionedCall/PartitionedCall/model/tfc3_6/tf_conv_48/conv2d_48/Conv2D/ReadVariableOp", "op": "Const", "attr": {"value": {"tensor": {"dtype": "DT_FLOAT", "tensorShape": {"dim": [{"size": "1"}, {"size": "1"}, {"size": "128"}, {"size": "128"}]}}}, "dtype": {"type": "DT_FLOAT"}}}, {"name": "PartitionedCall/PartitionedCall/model/tfc3_6/tf_conv_48/conv2d_48/BiasAdd/ReadVariableOp", "op": "Const", "attr": {"dtype": {"type": "DT_FLOAT"}, "value": {"tensor": {"dtype": "DT_FLOAT", "tensorShape": {"dim": [{"size": "128"}]}}}}}, {"name": "PartitionedCall/PartitionedCall/model/tf_conv_51/sequential_13/tf_pad_6/Pad/paddings", "op": "Const", "attr": {"dtype": {"type": "DT_INT32"}, "value": {"tensor": {"dtype": "DT_INT32", "tensorShape": {"dim": [{"size": "4"}, {"size": "2"}]}}}}}, {"name": "PartitionedCall/PartitionedCall/model/tf_conv_51/sequential_13/conv2d_51/Conv2D/ReadVariableOp", "op": "Const", "attr": {"dtype": {"type": "DT_FLOAT"}, "value": {"tensor": {"dtype": "DT_FLOAT", "tensorShape": {"dim": [{"size": "3"}, {"size": "3"}, {"size": "128"}, {"size": "128"}]}}}}}, {"name": "PartitionedCall/PartitionedCall/model/tf_conv_51/sequential_13/conv2d_51/BiasAdd/ReadVariableOp", "op": "Const", "attr": {"value": {"tensor": {"dtype": "DT_FLOAT", "tensorShape": {"dim": [{"size": "128"}]}}}, "dtype": {"type": "DT_FLOAT"}}}, {"name": "PartitionedCall/PartitionedCall/model/tfc3_3/tf_conv_26/conv2d_26/Conv2D/ReadVariableOp", "op": "Const", "attr": {"value": {"tensor": {"dtype": "DT_FLOAT", "tensorShape": {"dim": [{"size": "1"}, {"size": "1"}, {"size": "256"}, {"size": "128"}]}}}, "dtype": {"type": "DT_FLOAT"}}}, {"name": "PartitionedCall/PartitionedCall/model/tfc3_3/tf_conv_26/conv2d_26/BiasAdd/ReadVariableOp", "op": "Const", "attr": {"dtype": {"type": "DT_FLOAT"}, "value": {"tensor": {"dtype": "DT_FLOAT", "tensorShape": {"dim": [{"size": "128"}]}}}}}, {"name": "PartitionedCall/PartitionedCall/model/tfc3_3/sequential_8/tf_bottleneck_6/tf_conv_29/conv2d_29/Conv2D/ReadVariableOp", "op": "Const", "attr": {"value": {"tensor": {"dtype": "DT_FLOAT", "tensorShape": {"dim": [{"size": "1"}, {"size": "1"}, {"size": "128"}, {"size": "128"}]}}}, "dtype": {"type": "DT_FLOAT"}}}, {"name": "PartitionedCall/PartitionedCall/model/tfc3_3/sequential_8/tf_bottleneck_6/tf_conv_29/conv2d_29/BiasAdd/ReadVariableOp", "op": "Const", "attr": {"value": {"tensor": {"dtype": "DT_FLOAT", "tensorShape": {"dim": [{"size": "128"}]}}}, "dtype": {"type": "DT_FLOAT"}}}, {"name": "PartitionedCall/PartitionedCall/model/tfc3_3/sequential_8/tf_bottleneck_6/tf_conv_30/conv2d_30/Conv2D/ReadVariableOp", "op": "Const", "attr": {"value": {"tensor": {"dtype": "DT_FLOAT", "tensorShape": {"dim": [{"size": "3"}, {"size": "3"}, {"size": "128"}, {"size": "128"}]}}}, "dtype": {"type": "DT_FLOAT"}}}, {"name": "PartitionedCall/PartitionedCall/model/tfc3_3/sequential_8/tf_bottleneck_6/tf_conv_30/conv2d_30/BiasAdd/ReadVariableOp", "op": "Const", "attr": {"dtype": {"type": "DT_FLOAT"}, "value": {"tensor": {"dtype": "DT_FLOAT", "tensorShape": {"dim": [{"size": "128"}]}}}}}, {"name": "PartitionedCall/PartitionedCall/model/tfc3_2/tf_conv_16/conv2d_16/Conv2D/ReadVariableOp", "op": "Const", "attr": {"dtype": {"type": "DT_FLOAT"}, "value": {"tensor": {"dtype": "DT_FLOAT", "tensorShape": {"dim": [{"size": "1"}, {"size": "1"}, {"size": "128"}, {"size": "64"}]}}}}}, {"name": "PartitionedCall/PartitionedCall/model/tfc3_2/tf_conv_16/conv2d_16/BiasAdd/ReadVariableOp", "op": "Const", "attr": {"dtype": {"type": "DT_FLOAT"}, "value": {"tensor": {"dtype": "DT_FLOAT", "tensorShape": {"dim": [{"size": "64"}]}}}}}, {"name": "PartitionedCall/PartitionedCall/model/tfc3_2/sequential_6/tf_bottleneck_3/tf_conv_19/conv2d_19/Conv2D/ReadVariableOp", "op": "Const", "attr": {"value": {"tensor": {"dtype": "DT_FLOAT", "tensorShape": {"dim": [{"size": "1"}, {"size": "1"}, {"size": "64"}, {"size": "64"}]}}}, "dtype": {"type": "DT_FLOAT"}}}, {"name": "PartitionedCall/PartitionedCall/model/tfc3_2/sequential_6/tf_bottleneck_3/tf_conv_19/conv2d_19/BiasAdd/ReadVariableOp", "op": "Const", "attr": {"dtype": {"type": "DT_FLOAT"}, "value": {"tensor": {"dtype": "DT_FLOAT", "tensorShape": {"dim": [{"size": "64"}]}}}}}, {"name": "PartitionedCall/PartitionedCall/model/tfc3_2/sequential_6/tf_bottleneck_3/tf_conv_20/conv2d_20/Conv2D/ReadVariableOp", "op": "Const", "attr": {"value": {"tensor": {"dtype": "DT_FLOAT", "tensorShape": {"dim": [{"size": "3"}, {"size": "3"}, {"size": "64"}, {"size": "64"}]}}}, "dtype": {"type": "DT_FLOAT"}}}, {"name": "PartitionedCall/PartitionedCall/model/tfc3_2/sequential_6/tf_bottleneck_3/tf_conv_20/conv2d_20/BiasAdd/ReadVariableOp", "op": "Const", "attr": {"value": {"tensor": {"dtype": "DT_FLOAT", "tensorShape": {"dim": [{"size": "64"}]}}}, "dtype": {"type": "DT_FLOAT"}}}, {"name": "PartitionedCall/PartitionedCall/model/tfc3_2/sequential_6/tf_bottleneck_4/tf_conv_21/conv2d_21/Conv2D/ReadVariableOp", "op": "Const", "attr": {"dtype": {"type": "DT_FLOAT"}, "value": {"tensor": {"dtype": "DT_FLOAT", "tensorShape": {"dim": [{"size": "1"}, {"size": "1"}, {"size": "64"}, {"size": "64"}]}}}}}, {"name": "PartitionedCall/PartitionedCall/model/tfc3_2/sequential_6/tf_bottleneck_4/tf_conv_21/conv2d_21/BiasAdd/ReadVariableOp", "op": "Const", "attr": {"dtype": {"type": "DT_FLOAT"}, "value": {"tensor": {"dtype": "DT_FLOAT", "tensorShape": {"dim": [{"size": "64"}]}}}}}, {"name": "PartitionedCall/PartitionedCall/model/tfc3_2/sequential_6/tf_bottleneck_4/tf_conv_22/conv2d_22/Conv2D/ReadVariableOp", "op": "Const", "attr": {"dtype": {"type": "DT_FLOAT"}, "value": {"tensor": {"dtype": "DT_FLOAT", "tensorShape": {"dim": [{"size": "3"}, {"size": "3"}, {"size": "64"}, {"size": "64"}]}}}}}, {"name": "PartitionedCall/PartitionedCall/model/tfc3_2/sequential_6/tf_bottleneck_4/tf_conv_22/conv2d_22/BiasAdd/ReadVariableOp", "op": "Const", "attr": {"dtype": {"type": "DT_FLOAT"}, "value": {"tensor": {"dtype": "DT_FLOAT", "tensorShape": {"dim": [{"size": "64"}]}}}}}, {"name": "PartitionedCall/PartitionedCall/model/tfc3_2/sequential_6/tf_bottleneck_5/tf_conv_23/conv2d_23/Conv2D/ReadVariableOp", "op": "Const", "attr": {"dtype": {"type": "DT_FLOAT"}, "value": {"tensor": {"dtype": "DT_FLOAT", "tensorShape": {"dim": [{"size": "1"}, {"size": "1"}, {"size": "64"}, {"size": "64"}]}}}}}, {"name": "PartitionedCall/PartitionedCall/model/tfc3_2/sequential_6/tf_bottleneck_5/tf_conv_23/conv2d_23/BiasAdd/ReadVariableOp", "op": "Const", "attr": {"value": {"tensor": {"dtype": "DT_FLOAT", "tensorShape": {"dim": [{"size": "64"}]}}}, "dtype": {"type": "DT_FLOAT"}}}, {"name": "PartitionedCall/PartitionedCall/model/tfc3_2/sequential_6/tf_bottleneck_5/tf_conv_24/conv2d_24/Conv2D/ReadVariableOp", "op": "Const", "attr": {"value": {"tensor": {"dtype": "DT_FLOAT", "tensorShape": {"dim": [{"size": "3"}, {"size": "3"}, {"size": "64"}, {"size": "64"}]}}}, "dtype": {"type": "DT_FLOAT"}}}, {"name": "PartitionedCall/PartitionedCall/model/tfc3_2/sequential_6/tf_bottleneck_5/tf_conv_24/conv2d_24/BiasAdd/ReadVariableOp", "op": "Const", "attr": {"value": {"tensor": {"dtype": "DT_FLOAT", "tensorShape": {"dim": [{"size": "64"}]}}}, "dtype": {"type": "DT_FLOAT"}}}, {"name": "PartitionedCall/PartitionedCall/model/tfc3_1/tf_conv_8/conv2d_8/Conv2D/ReadVariableOp", "op": "Const", "attr": {"value": {"tensor": {"dtype": "DT_FLOAT", "tensorShape": {"dim": [{"size": "1"}, {"size": "1"}, {"size": "64"}, {"size": "32"}]}}}, "dtype": {"type": "DT_FLOAT"}}}, {"name": "PartitionedCall/PartitionedCall/model/tfc3_1/tf_conv_8/conv2d_8/BiasAdd/ReadVariableOp", "op": "Const", "attr": {"value": {"tensor": {"dtype": "DT_FLOAT", "tensorShape": {"dim": [{"size": "32"}]}}}, "dtype": {"type": "DT_FLOAT"}}}, {"name": "PartitionedCall/PartitionedCall/model/tfc3_1/sequential_4/tf_bottleneck_1/tf_conv_11/conv2d_11/Conv2D/ReadVariableOp", "op": "Const", "attr": {"dtype": {"type": "DT_FLOAT"}, "value": {"tensor": {"dtype": "DT_FLOAT", "tensorShape": {"dim": [{"size": "1"}, {"size": "1"}, {"size": "32"}, {"size": "32"}]}}}}}, {"name": "PartitionedCall/PartitionedCall/model/tfc3_1/sequential_4/tf_bottleneck_1/tf_conv_11/conv2d_11/BiasAdd/ReadVariableOp", "op": "Const", "attr": {"value": {"tensor": {"dtype": "DT_FLOAT", "tensorShape": {"dim": [{"size": "32"}]}}}, "dtype": {"type": "DT_FLOAT"}}}, {"name": "PartitionedCall/PartitionedCall/model/tfc3_1/sequential_4/tf_bottleneck_1/tf_conv_12/conv2d_12/Conv2D/ReadVariableOp", "op": "Const", "attr": {"dtype": {"type": "DT_FLOAT"}, "value": {"tensor": {"dtype": "DT_FLOAT", "tensorShape": {"dim": [{"size": "3"}, {"size": "3"}, {"size": "32"}, {"size": "32"}]}}}}}, {"name": "PartitionedCall/PartitionedCall/model/tfc3_1/sequential_4/tf_bottleneck_1/tf_conv_12/conv2d_12/BiasAdd/ReadVariableOp", "op": "Const", "attr": {"dtype": {"type": "DT_FLOAT"}, "value": {"tensor": {"dtype": "DT_FLOAT", "tensorShape": {"dim": [{"size": "32"}]}}}}}, {"name": "PartitionedCall/PartitionedCall/model/tfc3_1/sequential_4/tf_bottleneck_2/tf_conv_13/conv2d_13/Conv2D/ReadVariableOp", "op": "Const", "attr": {"dtype": {"type": "DT_FLOAT"}, "value": {"tensor": {"dtype": "DT_FLOAT", "tensorShape": {"dim": [{"size": "1"}, {"size": "1"}, {"size": "32"}, {"size": "32"}]}}}}}, {"name": "PartitionedCall/PartitionedCall/model/tfc3_1/sequential_4/tf_bottleneck_2/tf_conv_13/conv2d_13/BiasAdd/ReadVariableOp", "op": "Const", "attr": {"value": {"tensor": {"dtype": "DT_FLOAT", "tensorShape": {"dim": [{"size": "32"}]}}}, "dtype": {"type": "DT_FLOAT"}}}, {"name": "PartitionedCall/PartitionedCall/model/tfc3_1/sequential_4/tf_bottleneck_2/tf_conv_14/conv2d_14/Conv2D/ReadVariableOp", "op": "Const", "attr": {"dtype": {"type": "DT_FLOAT"}, "value": {"tensor": {"dtype": "DT_FLOAT", "tensorShape": {"dim": [{"size": "3"}, {"size": "3"}, {"size": "32"}, {"size": "32"}]}}}}}, {"name": "PartitionedCall/PartitionedCall/model/tfc3_1/sequential_4/tf_bottleneck_2/tf_conv_14/conv2d_14/BiasAdd/ReadVariableOp", "op": "Const", "attr": {"value": {"tensor": {"dtype": "DT_FLOAT", "tensorShape": {"dim": [{"size": "32"}]}}}, "dtype": {"type": "DT_FLOAT"}}}, {"name": "PartitionedCall/PartitionedCall/model/tfc3/tf_conv_2/conv2d_2/Conv2D/ReadVariableOp", "op": "Const", "attr": {"dtype": {"type": "DT_FLOAT"}, "value": {"tensor": {"dtype": "DT_FLOAT", "tensorShape": {"dim": [{"size": "1"}, {"size": "1"}, {"size": "32"}, {"size": "16"}]}}}}}, {"name": "PartitionedCall/PartitionedCall/model/tfc3/tf_conv_2/conv2d_2/BiasAdd/ReadVariableOp", "op": "Const", "attr": {"dtype": {"type": "DT_FLOAT"}, "value": {"tensor": {"dtype": "DT_FLOAT", "tensorShape": {"dim": [{"size": "16"}]}}}}}, {"name": "PartitionedCall/PartitionedCall/model/tfc3/sequential_2/tf_bottleneck/tf_conv_5/conv2d_5/Conv2D/ReadVariableOp", "op": "Const", "attr": {"dtype": {"type": "DT_FLOAT"}, "value": {"tensor": {"dtype": "DT_FLOAT", "tensorShape": {"dim": [{"size": "1"}, {"size": "1"}, {"size": "16"}, {"size": "16"}]}}}}}, {"name": "PartitionedCall/PartitionedCall/model/tfc3/sequential_2/tf_bottleneck/tf_conv_5/conv2d_5/BiasAdd/ReadVariableOp", "op": "Const", "attr": {"value": {"tensor": {"dtype": "DT_FLOAT", "tensorShape": {"dim": [{"size": "16"}]}}}, "dtype": {"type": "DT_FLOAT"}}}, {"name": "PartitionedCall/PartitionedCall/model/tfc3/sequential_2/tf_bottleneck/tf_conv_6/conv2d_6/Conv2D/ReadVariableOp", "op": "Const", "attr": {"value": {"tensor": {"dtype": "DT_FLOAT", "tensorShape": {"dim": [{"size": "3"}, {"size": "3"}, {"size": "16"}, {"size": "16"}]}}}, "dtype": {"type": "DT_FLOAT"}}}, {"name": "PartitionedCall/PartitionedCall/model/tfc3/sequential_2/tf_bottleneck/tf_conv_6/conv2d_6/BiasAdd/ReadVariableOp", "op": "Const", "attr": {"value": {"tensor": {"dtype": "DT_FLOAT", "tensorShape": {"dim": [{"size": "16"}]}}}, "dtype": {"type": "DT_FLOAT"}}}, {"name": "PartitionedCall/PartitionedCall/model/tf_conv/sequential/tf_pad/Pad/paddings", "op": "Const", "attr": {"dtype": {"type": "DT_INT32"}, "value": {"tensor": {"dtype": "DT_INT32", "tensorShape": {"dim": [{"size": "4"}, {"size": "2"}]}}}}}, {"name": "PartitionedCall/PartitionedCall/model/tf_conv/sequential/conv2d/Conv2D/ReadVariableOp", "op": "Const", "attr": {"dtype": {"type": "DT_FLOAT"}, "value": {"tensor": {"dtype": "DT_FLOAT", "tensorShape": {"dim": [{"size": "6"}, {"size": "6"}, {"size": "3"}, {"size": "16"}]}}}}}, {"name": "PartitionedCall/PartitionedCall/model/tf_conv/sequential/conv2d/BiasAdd/ReadVariableOp", "op": "Const", "attr": {"dtype": {"type": "DT_FLOAT"}, "value": {"tensor": {"dtype": "DT_FLOAT", "tensorShape": {"dim": [{"size": "16"}]}}}}}, {"name": "PartitionedCall/PartitionedCall/model/tf_conv_1/sequential_1/tf_pad_1/Pad/paddings", "op": "Const", "attr": {"dtype": {"type": "DT_INT32"}, "value": {"tensor": {"dtype": "DT_INT32", "tensorShape": {"dim": [{"size": "4"}, {"size": "2"}]}}}}}, {"name": "PartitionedCall/PartitionedCall/model/tf_conv_1/sequential_1/conv2d_1/Conv2D/ReadVariableOp", "op": "Const", "attr": {"dtype": {"type": "DT_FLOAT"}, "value": {"tensor": {"dtype": "DT_FLOAT", "tensorShape": {"dim": [{"size": "3"}, {"size": "3"}, {"size": "16"}, {"size": "32"}]}}}}}, {"name": "PartitionedCall/PartitionedCall/model/tf_conv_1/sequential_1/conv2d_1/BiasAdd/ReadVariableOp", "op": "Const", "attr": {"value": {"tensor": {"dtype": "DT_FLOAT", "tensorShape": {"dim": [{"size": "32"}]}}}, "dtype": {"type": "DT_FLOAT"}}}, {"name": "PartitionedCall/PartitionedCall/model/tfc3/tf_conv_3/conv2d_3/Conv2D/ReadVariableOp", "op": "Const", "attr": {"dtype": {"type": "DT_FLOAT"}, "value": {"tensor": {"dtype": "DT_FLOAT", "tensorShape": {"dim": [{"size": "1"}, {"size": "1"}, {"size": "32"}, {"size": "16"}]}}}}}, {"name": "PartitionedCall/PartitionedCall/model/tfc3/tf_conv_3/conv2d_3/BiasAdd/ReadVariableOp", "op": "Const", "attr": {"dtype": {"type": "DT_FLOAT"}, "value": {"tensor": {"dtype": "DT_FLOAT", "tensorShape": {"dim": [{"size": "16"}]}}}}}, {"name": "PartitionedCall/PartitionedCall/model/tfc3/concat/axis", "op": "Const", "attr": {"value": {"tensor": {"dtype": "DT_INT32", "tensorShape": {}}}, "dtype": {"type": "DT_INT32"}}}, {"name": "PartitionedCall/PartitionedCall/model/tfc3/tf_conv_4/conv2d_4/Conv2D/ReadVariableOp", "op": "Const", "attr": {"dtype": {"type": "DT_FLOAT"}, "value": {"tensor": {"dtype": "DT_FLOAT", "tensorShape": {"dim": [{"size": "1"}, {"size": "1"}, {"size": "32"}, {"size": "32"}]}}}}}, {"name": "PartitionedCall/PartitionedCall/model/tfc3/tf_conv_4/conv2d_4/BiasAdd/ReadVariableOp", "op": "Const", "attr": {"value": {"tensor": {"dtype": "DT_FLOAT", "tensorShape": {"dim": [{"size": "32"}]}}}, "dtype": {"type": "DT_FLOAT"}}}, {"name": "PartitionedCall/PartitionedCall/model/tf_conv_7/sequential_3/tf_pad_2/Pad/paddings", "op": "Const", "attr": {"value": {"tensor": {"dtype": "DT_INT32", "tensorShape": {"dim": [{"size": "4"}, {"size": "2"}]}}}, "dtype": {"type": "DT_INT32"}}}, {"name": "PartitionedCall/PartitionedCall/model/tf_conv_7/sequential_3/conv2d_7/Conv2D/ReadVariableOp", "op": "Const", "attr": {"dtype": {"type": "DT_FLOAT"}, "value": {"tensor": {"dtype": "DT_FLOAT", "tensorShape": {"dim": [{"size": "3"}, {"size": "3"}, {"size": "32"}, {"size": "64"}]}}}}}, {"name": "PartitionedCall/PartitionedCall/model/tf_conv_7/sequential_3/conv2d_7/BiasAdd/ReadVariableOp", "op": "Const", "attr": {"value": {"tensor": {"dtype": "DT_FLOAT", "tensorShape": {"dim": [{"size": "64"}]}}}, "dtype": {"type": "DT_FLOAT"}}}, {"name": "PartitionedCall/PartitionedCall/model/tfc3_1/tf_conv_9/conv2d_9/Conv2D/ReadVariableOp", "op": "Const", "attr": {"value": {"tensor": {"dtype": "DT_FLOAT", "tensorShape": {"dim": [{"size": "1"}, {"size": "1"}, {"size": "64"}, {"size": "32"}]}}}, "dtype": {"type": "DT_FLOAT"}}}, {"name": "PartitionedCall/PartitionedCall/model/tfc3_1/tf_conv_9/conv2d_9/BiasAdd/ReadVariableOp", "op": "Const", "attr": {"value": {"tensor": {"dtype": "DT_FLOAT", "tensorShape": {"dim": [{"size": "32"}]}}}, "dtype": {"type": "DT_FLOAT"}}}, {"name": "PartitionedCall/PartitionedCall/model/tfc3_1/concat/axis", "op": "Const", "attr": {"dtype": {"type": "DT_INT32"}, "value": {"tensor": {"dtype": "DT_INT32", "tensorShape": {}}}}}, {"name": "PartitionedCall/PartitionedCall/model/tfc3_1/tf_conv_10/conv2d_10/Conv2D/ReadVariableOp", "op": "Const", "attr": {"value": {"tensor": {"dtype": "DT_FLOAT", "tensorShape": {"dim": [{"size": "1"}, {"size": "1"}, {"size": "64"}, {"size": "64"}]}}}, "dtype": {"type": "DT_FLOAT"}}}, {"name": "PartitionedCall/PartitionedCall/model/tfc3_1/tf_conv_10/conv2d_10/BiasAdd/ReadVariableOp", "op": "Const", "attr": {"value": {"tensor": {"dtype": "DT_FLOAT", "tensorShape": {"dim": [{"size": "64"}]}}}, "dtype": {"type": "DT_FLOAT"}}}, {"name": "PartitionedCall/PartitionedCall/model/tf_conv_15/sequential_5/tf_pad_3/Pad/paddings", "op": "Const", "attr": {"dtype": {"type": "DT_INT32"}, "value": {"tensor": {"dtype": "DT_INT32", "tensorShape": {"dim": [{"size": "4"}, {"size": "2"}]}}}}}, {"name": "PartitionedCall/PartitionedCall/model/tf_conv_15/sequential_5/conv2d_15/Conv2D/ReadVariableOp", "op": "Const", "attr": {"dtype": {"type": "DT_FLOAT"}, "value": {"tensor": {"dtype": "DT_FLOAT", "tensorShape": {"dim": [{"size": "3"}, {"size": "3"}, {"size": "64"}, {"size": "128"}]}}}}}, {"name": "PartitionedCall/PartitionedCall/model/tf_conv_15/sequential_5/conv2d_15/BiasAdd/ReadVariableOp", "op": "Const", "attr": {"value": {"tensor": {"dtype": "DT_FLOAT", "tensorShape": {"dim": [{"size": "128"}]}}}, "dtype": {"type": "DT_FLOAT"}}}, {"name": "PartitionedCall/PartitionedCall/model/tfc3_2/tf_conv_17/conv2d_17/Conv2D/ReadVariableOp", "op": "Const", "attr": {"value": {"tensor": {"dtype": "DT_FLOAT", "tensorShape": {"dim": [{"size": "1"}, {"size": "1"}, {"size": "128"}, {"size": "64"}]}}}, "dtype": {"type": "DT_FLOAT"}}}, {"name": "PartitionedCall/PartitionedCall/model/tfc3_2/tf_conv_17/conv2d_17/BiasAdd/ReadVariableOp", "op": "Const", "attr": {"value": {"tensor": {"dtype": "DT_FLOAT", "tensorShape": {"dim": [{"size": "64"}]}}}, "dtype": {"type": "DT_FLOAT"}}}, {"name": "PartitionedCall/PartitionedCall/model/tfc3_2/concat/axis", "op": "Const", "attr": {"dtype": {"type": "DT_INT32"}, "value": {"tensor": {"dtype": "DT_INT32", "tensorShape": {}}}}}, {"name": "PartitionedCall/PartitionedCall/model/tfc3_2/tf_conv_18/conv2d_18/Conv2D/ReadVariableOp", "op": "Const", "attr": {"value": {"tensor": {"dtype": "DT_FLOAT", "tensorShape": {"dim": [{"size": "1"}, {"size": "1"}, {"size": "128"}, {"size": "128"}]}}}, "dtype": {"type": "DT_FLOAT"}}}, {"name": "PartitionedCall/PartitionedCall/model/tfc3_2/tf_conv_18/conv2d_18/BiasAdd/ReadVariableOp", "op": "Const", "attr": {"dtype": {"type": "DT_FLOAT"}, "value": {"tensor": {"dtype": "DT_FLOAT", "tensorShape": {"dim": [{"size": "128"}]}}}}}, {"name": "PartitionedCall/PartitionedCall/model/tf_conv_25/sequential_7/tf_pad_4/Pad/paddings", "op": "Const", "attr": {"dtype": {"type": "DT_INT32"}, "value": {"tensor": {"dtype": "DT_INT32", "tensorShape": {"dim": [{"size": "4"}, {"size": "2"}]}}}}}, {"name": "PartitionedCall/PartitionedCall/model/tf_conv_25/sequential_7/conv2d_25/Conv2D/ReadVariableOp", "op": "Const", "attr": {"dtype": {"type": "DT_FLOAT"}, "value": {"tensor": {"dtype": "DT_FLOAT", "tensorShape": {"dim": [{"size": "3"}, {"size": "3"}, {"size": "128"}, {"size": "256"}]}}}}}, {"name": "PartitionedCall/PartitionedCall/model/tf_conv_25/sequential_7/conv2d_25/BiasAdd/ReadVariableOp", "op": "Const", "attr": {"value": {"tensor": {"dtype": "DT_FLOAT", "tensorShape": {"dim": [{"size": "256"}]}}}, "dtype": {"type": "DT_FLOAT"}}}, {"name": "PartitionedCall/PartitionedCall/model/tfc3_3/tf_conv_27/conv2d_27/Conv2D/ReadVariableOp", "op": "Const", "attr": {"dtype": {"type": "DT_FLOAT"}, "value": {"tensor": {"dtype": "DT_FLOAT", "tensorShape": {"dim": [{"size": "1"}, {"size": "1"}, {"size": "256"}, {"size": "128"}]}}}}}, {"name": "PartitionedCall/PartitionedCall/model/tfc3_3/tf_conv_27/conv2d_27/BiasAdd/ReadVariableOp", "op": "Const", "attr": {"value": {"tensor": {"dtype": "DT_FLOAT", "tensorShape": {"dim": [{"size": "128"}]}}}, "dtype": {"type": "DT_FLOAT"}}}, {"name": "PartitionedCall/PartitionedCall/model/tfc3_3/concat/axis", "op": "Const", "attr": {"value": {"tensor": {"dtype": "DT_INT32", "tensorShape": {}}}, "dtype": {"type": "DT_INT32"}}}, {"name": "PartitionedCall/PartitionedCall/model/tfc3_3/tf_conv_28/conv2d_28/Conv2D/ReadVariableOp", "op": "Const", "attr": {"value": {"tensor": {"dtype": "DT_FLOAT", "tensorShape": {"dim": [{"size": "1"}, {"size": "1"}, {"size": "256"}, {"size": "256"}]}}}, "dtype": {"type": "DT_FLOAT"}}}, {"name": "PartitionedCall/PartitionedCall/model/tfc3_3/tf_conv_28/conv2d_28/BiasAdd/ReadVariableOp", "op": "Const", "attr": {"dtype": {"type": "DT_FLOAT"}, "value": {"tensor": {"dtype": "DT_FLOAT", "tensorShape": {"dim": [{"size": "256"}]}}}}}, {"name": "PartitionedCall/PartitionedCall/model/tfsppf/tf_conv_31/conv2d_31/Conv2D/ReadVariableOp", "op": "Const", "attr": {"dtype": {"type": "DT_FLOAT"}, "value": {"tensor": {"dtype": "DT_FLOAT", "tensorShape": {"dim": [{"size": "1"}, {"size": "1"}, {"size": "256"}, {"size": "128"}]}}}}}, {"name": "PartitionedCall/PartitionedCall/model/tfsppf/tf_conv_31/conv2d_31/BiasAdd/ReadVariableOp", "op": "Const", "attr": {"value": {"tensor": {"dtype": "DT_FLOAT", "tensorShape": {"dim": [{"size": "128"}]}}}, "dtype": {"type": "DT_FLOAT"}}}, {"name": "PartitionedCall/PartitionedCall/model/tfsppf/concat/axis", "op": "Const", "attr": {"value": {"tensor": {"dtype": "DT_INT32", "tensorShape": {}}}, "dtype": {"type": "DT_INT32"}}}, {"name": "PartitionedCall/PartitionedCall/model/tfsppf/tf_conv_32/conv2d_32/Conv2D/ReadVariableOp", "op": "Const", "attr": {"dtype": {"type": "DT_FLOAT"}, "value": {"tensor": {"dtype": "DT_FLOAT", "tensorShape": {"dim": [{"size": "1"}, {"size": "1"}, {"size": "512"}, {"size": "256"}]}}}}}, {"name": "PartitionedCall/PartitionedCall/model/tfsppf/tf_conv_32/conv2d_32/BiasAdd/ReadVariableOp", "op": "Const", "attr": {"value": {"tensor": {"dtype": "DT_FLOAT", "tensorShape": {"dim": [{"size": "256"}]}}}, "dtype": {"type": "DT_FLOAT"}}}, {"name": "PartitionedCall/PartitionedCall/model/tf_conv_33/conv2d_33/Conv2D/ReadVariableOp", "op": "Const", "attr": {"dtype": {"type": "DT_FLOAT"}, "value": {"tensor": {"dtype": "DT_FLOAT", "tensorShape": {"dim": [{"size": "1"}, {"size": "1"}, {"size": "256"}, {"size": "128"}]}}}}}, {"name": "PartitionedCall/PartitionedCall/model/tf_conv_33/conv2d_33/BiasAdd/ReadVariableOp", "op": "Const", "attr": {"dtype": {"type": "DT_FLOAT"}, "value": {"tensor": {"dtype": "DT_FLOAT", "tensorShape": {"dim": [{"size": "128"}]}}}}}, {"name": "PartitionedCall/PartitionedCall/model/tf_concat_3/concat/axis", "op": "Const", "attr": {"dtype": {"type": "DT_INT32"}, "value": {"tensor": {"dtype": "DT_INT32", "tensorShape": {}}}}}, {"name": "PartitionedCall/PartitionedCall/model/tfc3_7/tf_conv_53/conv2d_53/Conv2D/ReadVariableOp", "op": "Const", "attr": {"value": {"tensor": {"dtype": "DT_FLOAT", "tensorShape": {"dim": [{"size": "1"}, {"size": "1"}, {"size": "256"}, {"size": "128"}]}}}, "dtype": {"type": "DT_FLOAT"}}}, {"name": "PartitionedCall/PartitionedCall/model/tfc3_7/tf_conv_53/conv2d_53/BiasAdd/ReadVariableOp", "op": "Const", "attr": {"value": {"tensor": {"dtype": "DT_FLOAT", "tensorShape": {"dim": [{"size": "128"}]}}}, "dtype": {"type": "DT_FLOAT"}}}, {"name": "PartitionedCall/PartitionedCall/model/tfc3_7/concat/axis", "op": "Const", "attr": {"dtype": {"type": "DT_INT32"}, "value": {"tensor": {"dtype": "DT_INT32", "tensorShape": {}}}}}, {"name": "PartitionedCall/PartitionedCall/model/tfc3_7/tf_conv_54/conv2d_54/Conv2D/ReadVariableOp", "op": "Const", "attr": {"value": {"tensor": {"dtype": "DT_FLOAT", "tensorShape": {"dim": [{"size": "1"}, {"size": "1"}, {"size": "256"}, {"size": "256"}]}}}, "dtype": {"type": "DT_FLOAT"}}}, {"name": "PartitionedCall/PartitionedCall/model/tfc3_7/tf_conv_54/conv2d_54/BiasAdd/ReadVariableOp", "op": "Const", "attr": {"dtype": {"type": "DT_FLOAT"}, "value": {"tensor": {"dtype": "DT_FLOAT", "tensorShape": {"dim": [{"size": "256"}]}}}}}, {"name": "PartitionedCall/PartitionedCall/model/tf_detect/tf_conv2d_2/conv2d_59/Conv2D/ReadVariableOp", "op": "Const", "attr": {"dtype": {"type": "DT_FLOAT"}, "value": {"tensor": {"dtype": "DT_FLOAT", "tensorShape": {"dim": [{"size": "1"}, {"size": "1"}, {"size": "256"}, {"size": "51"}]}}}}}, {"name": "PartitionedCall/PartitionedCall/model/tf_detect/tf_conv2d_2/conv2d_59/BiasAdd/ReadVariableOp", "op": "Const", "attr": {"value": {"tensor": {"dtype": "DT_FLOAT", "tensorShape": {"dim": [{"size": "51"}]}}}, "dtype": {"type": "DT_FLOAT"}}}, {"name": "PartitionedCall/PartitionedCall/model/tf_detect/Reshape_4/shape_1", "op": "Const", "attr": {"dtype": {"type": "DT_INT32"}, "value": {"tensor": {"dtype": "DT_INT32", "tensorShape": {"dim": [{"size": "4"}]}}}}}, {"name": "PartitionedCall/PartitionedCall/model/tf_detect/strided_slice_20/stack", "op": "Const", "attr": {"dtype": {"type": "DT_INT32"}, "value": {"tensor": {"dtype": "DT_INT32", "tensorShape": {"dim": [{"size": "2"}]}}}}}, {"name": "PartitionedCall/PartitionedCall/model/tf_detect/strided_slice_20/stack_1", "op": "Const", "attr": {"value": {"tensor": {"dtype": "DT_INT32", "tensorShape": {"dim": [{"size": "2"}]}}}, "dtype": {"type": "DT_INT32"}}}, {"name": "PartitionedCall/PartitionedCall/model/tf_detect/strided_slice_20/stack_2", "op": "Const", "attr": {"dtype": {"type": "DT_INT32"}, "value": {"tensor": {"dtype": "DT_INT32", "tensorShape": {"dim": [{"size": "2"}]}}}}}, {"name": "PartitionedCall/PartitionedCall/model/tf_detect/concat_2/axis", "op": "Const", "attr": {"dtype": {"type": "DT_INT32"}, "value": {"tensor": {"dtype": "DT_INT32", "tensorShape": {}}}}}, {"name": "PartitionedCall/PartitionedCall/model/tf_detect/Reshape_5/shape_1", "op": "Const", "attr": {"dtype": {"type": "DT_INT32"}, "value": {"tensor": {"dtype": "DT_INT32", "tensorShape": {"dim": [{"size": "3"}]}}}}}, {"name": "PartitionedCall/PartitionedCall/model/tf_detect/concat_3/axis", "op": "Const", "attr": {"value": {"tensor": {"dtype": "DT_INT32", "tensorShape": {}}}, "dtype": {"type": "DT_INT32"}}}, {"name": "x", "op": "Placeholder", "attr": {"shape": {"shape": {"dim": [{"size": "1"}, {"size": "320"}, {"size": "320"}, {"size": "3"}]}}, "dtype": {"type": "DT_FLOAT"}}}, {"name": "PartitionedCall/PartitionedCall/model/tf_conv/sequential/tf_pad/Pad", "op": "Pad", "input": ["x", "PartitionedCall/PartitionedCall/model/tf_conv/sequential/tf_pad/Pad/paddings"], "attr": {"T": {"type": "DT_FLOAT"}, "Tpaddings": {"type": "DT_INT32"}}}, {"name": "PartitionedCall/PartitionedCall/model/tf_conv/sequential/conv2d/BiasAdd", "op": "_FusedConv2D", "input": ["PartitionedCall/PartitionedCall/model/tf_conv/sequential/tf_pad/Pad", "PartitionedCall/PartitionedCall/model/tf_conv/sequential/conv2d/Conv2D/ReadVariableOp", "PartitionedCall/PartitionedCall/model/tf_conv/sequential/conv2d/BiasAdd/ReadVariableOp"], "device": "/device:CPU:0", "attr": {"epsilon": {"f": 0.0}, "use_cudnn_on_gpu": {"b": true}, "padding": {"s": "VkFMSUQ="}, "fused_ops": {"list": {"s": ["Qmlhc0FkZA=="]}}, "T": {"type": "DT_FLOAT"}, "strides": {"list": {"i": ["1", "2", "2", "1"]}}, "data_format": {"s": "TkhXQw=="}, "explicit_paddings": {"list": {}}, "dilations": {"list": {"i": ["1", "1", "1", "1"]}}, "num_args": {"i": "1"}}}, {"name": "PartitionedCall/PartitionedCall/model/tf_conv/Sigmoid", "op": "Sigmoid", "input": ["PartitionedCall/PartitionedCall/model/tf_conv/sequential/conv2d/BiasAdd"], "attr": {"T": {"type": "DT_FLOAT"}}}, {"name": "PartitionedCall/PartitionedCall/model/tf_conv/mul_1", "op": "Mul", "input": ["PartitionedCall/PartitionedCall/model/tf_conv/sequential/conv2d/BiasAdd", "PartitionedCall/PartitionedCall/model/tf_conv/Sigmoid"], "attr": {"T": {"type": "DT_FLOAT"}}}, {"name": "PartitionedCall/PartitionedCall/model/tf_conv_1/sequential_1/tf_pad_1/Pad", "op": "Pad", "input": ["PartitionedCall/PartitionedCall/model/tf_conv/mul_1", "PartitionedCall/PartitionedCall/model/tf_conv_1/sequential_1/tf_pad_1/Pad/paddings"], "attr": {"T": {"type": "DT_FLOAT"}, "Tpaddings": {"type": "DT_INT32"}}}, {"name": "PartitionedCall/PartitionedCall/model/tf_conv_1/sequential_1/conv2d_1/BiasAdd", "op": "_FusedConv2D", "input": ["PartitionedCall/PartitionedCall/model/tf_conv_1/sequential_1/tf_pad_1/Pad", "PartitionedCall/PartitionedCall/model/tf_conv_1/sequential_1/conv2d_1/Conv2D/ReadVariableOp", "PartitionedCall/PartitionedCall/model/tf_conv_1/sequential_1/conv2d_1/BiasAdd/ReadVariableOp"], "device": "/device:CPU:0", "attr": {"dilations": {"list": {"i": ["1", "1", "1", "1"]}}, "explicit_paddings": {"list": {}}, "num_args": {"i": "1"}, "T": {"type": "DT_FLOAT"}, "padding": {"s": "VkFMSUQ="}, "use_cudnn_on_gpu": {"b": true}, "strides": {"list": {"i": ["1", "2", "2", "1"]}}, "epsilon": {"f": 0.0}, "fused_ops": {"list": {"s": ["Qmlhc0FkZA=="]}}, "data_format": {"s": "TkhXQw=="}}}, {"name": "PartitionedCall/PartitionedCall/model/tf_conv_1/Sigmoid", "op": "Sigmoid", "input": ["PartitionedCall/PartitionedCall/model/tf_conv_1/sequential_1/conv2d_1/BiasAdd"], "attr": {"T": {"type": "DT_FLOAT"}}}, {"name": "PartitionedCall/PartitionedCall/model/tf_conv_1/mul_1", "op": "Mul", "input": ["PartitionedCall/PartitionedCall/model/tf_conv_1/sequential_1/conv2d_1/BiasAdd", "PartitionedCall/PartitionedCall/model/tf_conv_1/Sigmoid"], "attr": {"T": {"type": "DT_FLOAT"}}}, {"name": "PartitionedCall/PartitionedCall/model/tfc3/tf_conv_2/conv2d_2/BiasAdd", "op": "_FusedConv2D", "input": ["PartitionedCall/PartitionedCall/model/tf_conv_1/mul_1", "PartitionedCall/PartitionedCall/model/tfc3/tf_conv_2/conv2d_2/Conv2D/ReadVariableOp", "PartitionedCall/PartitionedCall/model/tfc3/tf_conv_2/conv2d_2/BiasAdd/ReadVariableOp"], "device": "/device:CPU:0", "attr": {"dilations": {"list": {"i": ["1", "1", "1", "1"]}}, "strides": {"list": {"i": ["1", "1", "1", "1"]}}, "explicit_paddings": {"list": {}}, "num_args": {"i": "1"}, "fused_ops": {"list": {"s": ["Qmlhc0FkZA=="]}}, "padding": {"s": "U0FNRQ=="}, "T": {"type": "DT_FLOAT"}, "use_cudnn_on_gpu": {"b": true}, "epsilon": {"f": 0.0}, "data_format": {"s": "TkhXQw=="}}}, {"name": "PartitionedCall/PartitionedCall/model/tfc3/tf_conv_3/conv2d_3/BiasAdd", "op": "_FusedConv2D", "input": ["PartitionedCall/PartitionedCall/model/tf_conv_1/mul_1", "PartitionedCall/PartitionedCall/model/tfc3/tf_conv_3/conv2d_3/Conv2D/ReadVariableOp", "PartitionedCall/PartitionedCall/model/tfc3/tf_conv_3/conv2d_3/BiasAdd/ReadVariableOp"], "device": "/device:CPU:0", "attr": {"strides": {"list": {"i": ["1", "1", "1", "1"]}}, "use_cudnn_on_gpu": {"b": true}, "fused_ops": {"list": {"s": ["Qmlhc0FkZA=="]}}, "T": {"type": "DT_FLOAT"}, "data_format": {"s": "TkhXQw=="}, "explicit_paddings": {"list": {}}, "padding": {"s": "U0FNRQ=="}, "epsilon": {"f": 0.0}, "dilations": {"list": {"i": ["1", "1", "1", "1"]}}, "num_args": {"i": "1"}}}, {"name": "PartitionedCall/PartitionedCall/model/tfc3/tf_conv_2/Sigmoid", "op": "Sigmoid", "input": ["PartitionedCall/PartitionedCall/model/tfc3/tf_conv_2/conv2d_2/BiasAdd"], "attr": {"T": {"type": "DT_FLOAT"}}}, {"name": "PartitionedCall/PartitionedCall/model/tfc3/tf_conv_3/Sigmoid", "op": "Sigmoid", "input": ["PartitionedCall/PartitionedCall/model/tfc3/tf_conv_3/conv2d_3/BiasAdd"], "attr": {"T": {"type": "DT_FLOAT"}}}, {"name": "PartitionedCall/PartitionedCall/model/tfc3/tf_conv_2/mul_1", "op": "Mul", "input": ["PartitionedCall/PartitionedCall/model/tfc3/tf_conv_2/conv2d_2/BiasAdd", "PartitionedCall/PartitionedCall/model/tfc3/tf_conv_2/Sigmoid"], "attr": {"T": {"type": "DT_FLOAT"}}}, {"name": "PartitionedCall/PartitionedCall/model/tfc3/tf_conv_3/mul_1", "op": "Mul", "input": ["PartitionedCall/PartitionedCall/model/tfc3/tf_conv_3/conv2d_3/BiasAdd", "PartitionedCall/PartitionedCall/model/tfc3/tf_conv_3/Sigmoid"], "attr": {"T": {"type": "DT_FLOAT"}}}, {"name": "PartitionedCall/PartitionedCall/model/tfc3/sequential_2/tf_bottleneck/tf_conv_5/conv2d_5/BiasAdd", "op": "_FusedConv2D", "input": ["PartitionedCall/PartitionedCall/model/tfc3/tf_conv_2/mul_1", "PartitionedCall/PartitionedCall/model/tfc3/sequential_2/tf_bottleneck/tf_conv_5/conv2d_5/Conv2D/ReadVariableOp", "PartitionedCall/PartitionedCall/model/tfc3/sequential_2/tf_bottleneck/tf_conv_5/conv2d_5/BiasAdd/ReadVariableOp"], "device": "/device:CPU:0", "attr": {"strides": {"list": {"i": ["1", "1", "1", "1"]}}, "data_format": {"s": "TkhXQw=="}, "explicit_paddings": {"list": {}}, "epsilon": {"f": 0.0}, "T": {"type": "DT_FLOAT"}, "dilations": {"list": {"i": ["1", "1", "1", "1"]}}, "num_args": {"i": "1"}, "padding": {"s": "U0FNRQ=="}, "fused_ops": {"list": {"s": ["Qmlhc0FkZA=="]}}, "use_cudnn_on_gpu": {"b": true}}}, {"name": "PartitionedCall/PartitionedCall/model/tfc3/sequential_2/tf_bottleneck/tf_conv_5/Sigmoid", "op": "Sigmoid", "input": ["PartitionedCall/PartitionedCall/model/tfc3/sequential_2/tf_bottleneck/tf_conv_5/conv2d_5/BiasAdd"], "attr": {"T": {"type": "DT_FLOAT"}}}, {"name": "PartitionedCall/PartitionedCall/model/tfc3/sequential_2/tf_bottleneck/tf_conv_5/mul_1", "op": "Mul", "input": ["PartitionedCall/PartitionedCall/model/tfc3/sequential_2/tf_bottleneck/tf_conv_5/conv2d_5/BiasAdd", "PartitionedCall/PartitionedCall/model/tfc3/sequential_2/tf_bottleneck/tf_conv_5/Sigmoid"], "attr": {"T": {"type": "DT_FLOAT"}}}, {"name": "PartitionedCall/PartitionedCall/model/tfc3/sequential_2/tf_bottleneck/tf_conv_6/conv2d_6/BiasAdd", "op": "_FusedConv2D", "input": ["PartitionedCall/PartitionedCall/model/tfc3/sequential_2/tf_bottleneck/tf_conv_5/mul_1", "PartitionedCall/PartitionedCall/model/tfc3/sequential_2/tf_bottleneck/tf_conv_6/conv2d_6/Conv2D/ReadVariableOp", "PartitionedCall/PartitionedCall/model/tfc3/sequential_2/tf_bottleneck/tf_conv_6/conv2d_6/BiasAdd/ReadVariableOp"], "device": "/device:CPU:0", "attr": {"fused_ops": {"list": {"s": ["Qmlhc0FkZA=="]}}, "epsilon": {"f": 0.0}, "num_args": {"i": "1"}, "strides": {"list": {"i": ["1", "1", "1", "1"]}}, "padding": {"s": "U0FNRQ=="}, "use_cudnn_on_gpu": {"b": true}, "dilations": {"list": {"i": ["1", "1", "1", "1"]}}, "data_format": {"s": "TkhXQw=="}, "explicit_paddings": {"list": {}}, "T": {"type": "DT_FLOAT"}}}, {"name": "PartitionedCall/PartitionedCall/model/tfc3/sequential_2/tf_bottleneck/tf_conv_6/Sigmoid", "op": "Sigmoid", "input": ["PartitionedCall/PartitionedCall/model/tfc3/sequential_2/tf_bottleneck/tf_conv_6/conv2d_6/BiasAdd"], "attr": {"T": {"type": "DT_FLOAT"}}}, {"name": "PartitionedCall/PartitionedCall/model/tfc3/sequential_2/tf_bottleneck/tf_conv_6/mul_1", "op": "Mul", "input": ["PartitionedCall/PartitionedCall/model/tfc3/sequential_2/tf_bottleneck/tf_conv_6/conv2d_6/BiasAdd", "PartitionedCall/PartitionedCall/model/tfc3/sequential_2/tf_bottleneck/tf_conv_6/Sigmoid"], "attr": {"T": {"type": "DT_FLOAT"}}}, {"name": "PartitionedCall/PartitionedCall/model/tfc3/sequential_2/tf_bottleneck/add", "op": "AddV2", "input": ["PartitionedCall/PartitionedCall/model/tfc3/tf_conv_2/mul_1", "PartitionedCall/PartitionedCall/model/tfc3/sequential_2/tf_bottleneck/tf_conv_6/mul_1"], "attr": {"T": {"type": "DT_FLOAT"}}}, {"name": "PartitionedCall/PartitionedCall/model/tfc3/concat", "op": "ConcatV2", "input": ["PartitionedCall/PartitionedCall/model/tfc3/sequential_2/tf_bottleneck/add", "PartitionedCall/PartitionedCall/model/tfc3/tf_conv_3/mul_1", "PartitionedCall/PartitionedCall/model/tfc3/concat/axis"], "attr": {"N": {"i": "2"}, "Tidx": {"type": "DT_INT32"}, "T": {"type": "DT_FLOAT"}}}, {"name": "PartitionedCall/PartitionedCall/model/tfc3/tf_conv_4/conv2d_4/BiasAdd", "op": "_FusedConv2D", "input": ["PartitionedCall/PartitionedCall/model/tfc3/concat", "PartitionedCall/PartitionedCall/model/tfc3/tf_conv_4/conv2d_4/Conv2D/ReadVariableOp", "PartitionedCall/PartitionedCall/model/tfc3/tf_conv_4/conv2d_4/BiasAdd/ReadVariableOp"], "device": "/device:CPU:0", "attr": {"data_format": {"s": "TkhXQw=="}, "padding": {"s": "U0FNRQ=="}, "dilations": {"list": {"i": ["1", "1", "1", "1"]}}, "num_args": {"i": "1"}, "T": {"type": "DT_FLOAT"}, "strides": {"list": {"i": ["1", "1", "1", "1"]}}, "epsilon": {"f": 0.0}, "use_cudnn_on_gpu": {"b": true}, "fused_ops": {"list": {"s": ["Qmlhc0FkZA=="]}}, "explicit_paddings": {"list": {}}}}, {"name": "PartitionedCall/PartitionedCall/model/tfc3/tf_conv_4/Sigmoid", "op": "Sigmoid", "input": ["PartitionedCall/PartitionedCall/model/tfc3/tf_conv_4/conv2d_4/BiasAdd"], "attr": {"T": {"type": "DT_FLOAT"}}}, {"name": "PartitionedCall/PartitionedCall/model/tfc3/tf_conv_4/mul_1", "op": "Mul", "input": ["PartitionedCall/PartitionedCall/model/tfc3/tf_conv_4/conv2d_4/BiasAdd", "PartitionedCall/PartitionedCall/model/tfc3/tf_conv_4/Sigmoid"], "attr": {"T": {"type": "DT_FLOAT"}}}, {"name": "PartitionedCall/PartitionedCall/model/tf_conv_7/sequential_3/tf_pad_2/Pad", "op": "Pad", "input": ["PartitionedCall/PartitionedCall/model/tfc3/tf_conv_4/mul_1", "PartitionedCall/PartitionedCall/model/tf_conv_7/sequential_3/tf_pad_2/Pad/paddings"], "attr": {"Tpaddings": {"type": "DT_INT32"}, "T": {"type": "DT_FLOAT"}}}, {"name": "PartitionedCall/PartitionedCall/model/tf_conv_7/sequential_3/conv2d_7/BiasAdd", "op": "_FusedConv2D", "input": ["PartitionedCall/PartitionedCall/model/tf_conv_7/sequential_3/tf_pad_2/Pad", "PartitionedCall/PartitionedCall/model/tf_conv_7/sequential_3/conv2d_7/Conv2D/ReadVariableOp", "PartitionedCall/PartitionedCall/model/tf_conv_7/sequential_3/conv2d_7/BiasAdd/ReadVariableOp"], "device": "/device:CPU:0", "attr": {"T": {"type": "DT_FLOAT"}, "fused_ops": {"list": {"s": ["Qmlhc0FkZA=="]}}, "use_cudnn_on_gpu": {"b": true}, "data_format": {"s": "TkhXQw=="}, "epsilon": {"f": 0.0}, "dilations": {"list": {"i": ["1", "1", "1", "1"]}}, "strides": {"list": {"i": ["1", "2", "2", "1"]}}, "explicit_paddings": {"list": {}}, "num_args": {"i": "1"}, "padding": {"s": "VkFMSUQ="}}}, {"name": "PartitionedCall/PartitionedCall/model/tf_conv_7/Sigmoid", "op": "Sigmoid", "input": ["PartitionedCall/PartitionedCall/model/tf_conv_7/sequential_3/conv2d_7/BiasAdd"], "attr": {"T": {"type": "DT_FLOAT"}}}, {"name": "PartitionedCall/PartitionedCall/model/tf_conv_7/mul_1", "op": "Mul", "input": ["PartitionedCall/PartitionedCall/model/tf_conv_7/sequential_3/conv2d_7/BiasAdd", "PartitionedCall/PartitionedCall/model/tf_conv_7/Sigmoid"], "attr": {"T": {"type": "DT_FLOAT"}}}, {"name": "PartitionedCall/PartitionedCall/model/tfc3_1/tf_conv_8/conv2d_8/BiasAdd", "op": "_FusedConv2D", "input": ["PartitionedCall/PartitionedCall/model/tf_conv_7/mul_1", "PartitionedCall/PartitionedCall/model/tfc3_1/tf_conv_8/conv2d_8/Conv2D/ReadVariableOp", "PartitionedCall/PartitionedCall/model/tfc3_1/tf_conv_8/conv2d_8/BiasAdd/ReadVariableOp"], "device": "/device:CPU:0", "attr": {"epsilon": {"f": 0.0}, "use_cudnn_on_gpu": {"b": true}, "strides": {"list": {"i": ["1", "1", "1", "1"]}}, "padding": {"s": "U0FNRQ=="}, "data_format": {"s": "TkhXQw=="}, "dilations": {"list": {"i": ["1", "1", "1", "1"]}}, "T": {"type": "DT_FLOAT"}, "explicit_paddings": {"list": {}}, "fused_ops": {"list": {"s": ["Qmlhc0FkZA=="]}}, "num_args": {"i": "1"}}}, {"name": "PartitionedCall/PartitionedCall/model/tfc3_1/tf_conv_9/conv2d_9/BiasAdd", "op": "_FusedConv2D", "input": ["PartitionedCall/PartitionedCall/model/tf_conv_7/mul_1", "PartitionedCall/PartitionedCall/model/tfc3_1/tf_conv_9/conv2d_9/Conv2D/ReadVariableOp", "PartitionedCall/PartitionedCall/model/tfc3_1/tf_conv_9/conv2d_9/BiasAdd/ReadVariableOp"], "device": "/device:CPU:0", "attr": {"data_format": {"s": "TkhXQw=="}, "epsilon": {"f": 0.0}, "dilations": {"list": {"i": ["1", "1", "1", "1"]}}, "strides": {"list": {"i": ["1", "1", "1", "1"]}}, "padding": {"s": "U0FNRQ=="}, "explicit_paddings": {"list": {}}, "T": {"type": "DT_FLOAT"}, "fused_ops": {"list": {"s": ["Qmlhc0FkZA=="]}}, "num_args": {"i": "1"}, "use_cudnn_on_gpu": {"b": true}}}, {"name": "PartitionedCall/PartitionedCall/model/tfc3_1/tf_conv_8/Sigmoid", "op": "Sigmoid", "input": ["PartitionedCall/PartitionedCall/model/tfc3_1/tf_conv_8/conv2d_8/BiasAdd"], "attr": {"T": {"type": "DT_FLOAT"}}}, {"name": "PartitionedCall/PartitionedCall/model/tfc3_1/tf_conv_9/Sigmoid", "op": "Sigmoid", "input": ["PartitionedCall/PartitionedCall/model/tfc3_1/tf_conv_9/conv2d_9/BiasAdd"], "attr": {"T": {"type": "DT_FLOAT"}}}, {"name": "PartitionedCall/PartitionedCall/model/tfc3_1/tf_conv_8/mul_1", "op": "Mul", "input": ["PartitionedCall/PartitionedCall/model/tfc3_1/tf_conv_8/conv2d_8/BiasAdd", "PartitionedCall/PartitionedCall/model/tfc3_1/tf_conv_8/Sigmoid"], "attr": {"T": {"type": "DT_FLOAT"}}}, {"name": "PartitionedCall/PartitionedCall/model/tfc3_1/tf_conv_9/mul_1", "op": "Mul", "input": ["PartitionedCall/PartitionedCall/model/tfc3_1/tf_conv_9/conv2d_9/BiasAdd", "PartitionedCall/PartitionedCall/model/tfc3_1/tf_conv_9/Sigmoid"], "attr": {"T": {"type": "DT_FLOAT"}}}, {"name": "PartitionedCall/PartitionedCall/model/tfc3_1/sequential_4/tf_bottleneck_1/tf_conv_11/conv2d_11/BiasAdd", "op": "_FusedConv2D", "input": ["PartitionedCall/PartitionedCall/model/tfc3_1/tf_conv_8/mul_1", "PartitionedCall/PartitionedCall/model/tfc3_1/sequential_4/tf_bottleneck_1/tf_conv_11/conv2d_11/Conv2D/ReadVariableOp", "PartitionedCall/PartitionedCall/model/tfc3_1/sequential_4/tf_bottleneck_1/tf_conv_11/conv2d_11/BiasAdd/ReadVariableOp"], "device": "/device:CPU:0", "attr": {"epsilon": {"f": 0.0}, "strides": {"list": {"i": ["1", "1", "1", "1"]}}, "dilations": {"list": {"i": ["1", "1", "1", "1"]}}, "data_format": {"s": "TkhXQw=="}, "explicit_paddings": {"list": {}}, "num_args": {"i": "1"}, "fused_ops": {"list": {"s": ["Qmlhc0FkZA=="]}}, "padding": {"s": "U0FNRQ=="}, "T": {"type": "DT_FLOAT"}, "use_cudnn_on_gpu": {"b": true}}}, {"name": "PartitionedCall/PartitionedCall/model/tfc3_1/sequential_4/tf_bottleneck_1/tf_conv_11/Sigmoid", "op": "Sigmoid", "input": ["PartitionedCall/PartitionedCall/model/tfc3_1/sequential_4/tf_bottleneck_1/tf_conv_11/conv2d_11/BiasAdd"], "attr": {"T": {"type": "DT_FLOAT"}}}, {"name": "PartitionedCall/PartitionedCall/model/tfc3_1/sequential_4/tf_bottleneck_1/tf_conv_11/mul_1", "op": "Mul", "input": ["PartitionedCall/PartitionedCall/model/tfc3_1/sequential_4/tf_bottleneck_1/tf_conv_11/conv2d_11/BiasAdd", "PartitionedCall/PartitionedCall/model/tfc3_1/sequential_4/tf_bottleneck_1/tf_conv_11/Sigmoid"], "attr": {"T": {"type": "DT_FLOAT"}}}, {"name": "PartitionedCall/PartitionedCall/model/tfc3_1/sequential_4/tf_bottleneck_1/tf_conv_12/conv2d_12/BiasAdd", "op": "_FusedConv2D", "input": ["PartitionedCall/PartitionedCall/model/tfc3_1/sequential_4/tf_bottleneck_1/tf_conv_11/mul_1", "PartitionedCall/PartitionedCall/model/tfc3_1/sequential_4/tf_bottleneck_1/tf_conv_12/conv2d_12/Conv2D/ReadVariableOp", "PartitionedCall/PartitionedCall/model/tfc3_1/sequential_4/tf_bottleneck_1/tf_conv_12/conv2d_12/BiasAdd/ReadVariableOp"], "device": "/device:CPU:0", "attr": {"use_cudnn_on_gpu": {"b": true}, "strides": {"list": {"i": ["1", "1", "1", "1"]}}, "epsilon": {"f": 0.0}, "fused_ops": {"list": {"s": ["Qmlhc0FkZA=="]}}, "data_format": {"s": "TkhXQw=="}, "dilations": {"list": {"i": ["1", "1", "1", "1"]}}, "explicit_paddings": {"list": {}}, "num_args": {"i": "1"}, "padding": {"s": "U0FNRQ=="}, "T": {"type": "DT_FLOAT"}}}, {"name": "PartitionedCall/PartitionedCall/model/tfc3_1/sequential_4/tf_bottleneck_1/tf_conv_12/Sigmoid", "op": "Sigmoid", "input": ["PartitionedCall/PartitionedCall/model/tfc3_1/sequential_4/tf_bottleneck_1/tf_conv_12/conv2d_12/BiasAdd"], "attr": {"T": {"type": "DT_FLOAT"}}}, {"name": "PartitionedCall/PartitionedCall/model/tfc3_1/sequential_4/tf_bottleneck_1/tf_conv_12/mul_1", "op": "Mul", "input": ["PartitionedCall/PartitionedCall/model/tfc3_1/sequential_4/tf_bottleneck_1/tf_conv_12/conv2d_12/BiasAdd", "PartitionedCall/PartitionedCall/model/tfc3_1/sequential_4/tf_bottleneck_1/tf_conv_12/Sigmoid"], "attr": {"T": {"type": "DT_FLOAT"}}}, {"name": "PartitionedCall/PartitionedCall/model/tfc3_1/sequential_4/tf_bottleneck_1/add", "op": "AddV2", "input": ["PartitionedCall/PartitionedCall/model/tfc3_1/tf_conv_8/mul_1", "PartitionedCall/PartitionedCall/model/tfc3_1/sequential_4/tf_bottleneck_1/tf_conv_12/mul_1"], "attr": {"T": {"type": "DT_FLOAT"}}}, {"name": "PartitionedCall/PartitionedCall/model/tfc3_1/sequential_4/tf_bottleneck_2/tf_conv_13/conv2d_13/BiasAdd", "op": "_FusedConv2D", "input": ["PartitionedCall/PartitionedCall/model/tfc3_1/sequential_4/tf_bottleneck_1/add", "PartitionedCall/PartitionedCall/model/tfc3_1/sequential_4/tf_bottleneck_2/tf_conv_13/conv2d_13/Conv2D/ReadVariableOp", "PartitionedCall/PartitionedCall/model/tfc3_1/sequential_4/tf_bottleneck_2/tf_conv_13/conv2d_13/BiasAdd/ReadVariableOp"], "device": "/device:CPU:0", "attr": {"data_format": {"s": "TkhXQw=="}, "dilations": {"list": {"i": ["1", "1", "1", "1"]}}, "T": {"type": "DT_FLOAT"}, "explicit_paddings": {"list": {}}, "fused_ops": {"list": {"s": ["Qmlhc0FkZA=="]}}, "num_args": {"i": "1"}, "epsilon": {"f": 0.0}, "use_cudnn_on_gpu": {"b": true}, "strides": {"list": {"i": ["1", "1", "1", "1"]}}, "padding": {"s": "U0FNRQ=="}}}, {"name": "PartitionedCall/PartitionedCall/model/tfc3_1/sequential_4/tf_bottleneck_2/tf_conv_13/Sigmoid", "op": "Sigmoid", "input": ["PartitionedCall/PartitionedCall/model/tfc3_1/sequential_4/tf_bottleneck_2/tf_conv_13/conv2d_13/BiasAdd"], "attr": {"T": {"type": "DT_FLOAT"}}}, {"name": "PartitionedCall/PartitionedCall/model/tfc3_1/sequential_4/tf_bottleneck_2/tf_conv_13/mul_1", "op": "Mul", "input": ["PartitionedCall/PartitionedCall/model/tfc3_1/sequential_4/tf_bottleneck_2/tf_conv_13/conv2d_13/BiasAdd", "PartitionedCall/PartitionedCall/model/tfc3_1/sequential_4/tf_bottleneck_2/tf_conv_13/Sigmoid"], "attr": {"T": {"type": "DT_FLOAT"}}}, {"name": "PartitionedCall/PartitionedCall/model/tfc3_1/sequential_4/tf_bottleneck_2/tf_conv_14/conv2d_14/BiasAdd", "op": "_FusedConv2D", "input": ["PartitionedCall/PartitionedCall/model/tfc3_1/sequential_4/tf_bottleneck_2/tf_conv_13/mul_1", "PartitionedCall/PartitionedCall/model/tfc3_1/sequential_4/tf_bottleneck_2/tf_conv_14/conv2d_14/Conv2D/ReadVariableOp", "PartitionedCall/PartitionedCall/model/tfc3_1/sequential_4/tf_bottleneck_2/tf_conv_14/conv2d_14/BiasAdd/ReadVariableOp"], "device": "/device:CPU:0", "attr": {"use_cudnn_on_gpu": {"b": true}, "data_format": {"s": "TkhXQw=="}, "dilations": {"list": {"i": ["1", "1", "1", "1"]}}, "strides": {"list": {"i": ["1", "1", "1", "1"]}}, "fused_ops": {"list": {"s": ["Qmlhc0FkZA=="]}}, "padding": {"s": "U0FNRQ=="}, "explicit_paddings": {"list": {}}, "num_args": {"i": "1"}, "epsilon": {"f": 0.0}, "T": {"type": "DT_FLOAT"}}}, {"name": "PartitionedCall/PartitionedCall/model/tfc3_1/sequential_4/tf_bottleneck_2/tf_conv_14/Sigmoid", "op": "Sigmoid", "input": ["PartitionedCall/PartitionedCall/model/tfc3_1/sequential_4/tf_bottleneck_2/tf_conv_14/conv2d_14/BiasAdd"], "attr": {"T": {"type": "DT_FLOAT"}}}, {"name": "PartitionedCall/PartitionedCall/model/tfc3_1/sequential_4/tf_bottleneck_2/tf_conv_14/mul_1", "op": "Mul", "input": ["PartitionedCall/PartitionedCall/model/tfc3_1/sequential_4/tf_bottleneck_2/tf_conv_14/conv2d_14/BiasAdd", "PartitionedCall/PartitionedCall/model/tfc3_1/sequential_4/tf_bottleneck_2/tf_conv_14/Sigmoid"], "attr": {"T": {"type": "DT_FLOAT"}}}, {"name": "PartitionedCall/PartitionedCall/model/tfc3_1/sequential_4/tf_bottleneck_2/add", "op": "AddV2", "input": ["PartitionedCall/PartitionedCall/model/tfc3_1/sequential_4/tf_bottleneck_1/add", "PartitionedCall/PartitionedCall/model/tfc3_1/sequential_4/tf_bottleneck_2/tf_conv_14/mul_1"], "attr": {"T": {"type": "DT_FLOAT"}}}, {"name": "PartitionedCall/PartitionedCall/model/tfc3_1/concat", "op": "ConcatV2", "input": ["PartitionedCall/PartitionedCall/model/tfc3_1/sequential_4/tf_bottleneck_2/add", "PartitionedCall/PartitionedCall/model/tfc3_1/tf_conv_9/mul_1", "PartitionedCall/PartitionedCall/model/tfc3_1/concat/axis"], "attr": {"N": {"i": "2"}, "Tidx": {"type": "DT_INT32"}, "T": {"type": "DT_FLOAT"}}}, {"name": "PartitionedCall/PartitionedCall/model/tfc3_1/tf_conv_10/conv2d_10/BiasAdd", "op": "_FusedConv2D", "input": ["PartitionedCall/PartitionedCall/model/tfc3_1/concat", "PartitionedCall/PartitionedCall/model/tfc3_1/tf_conv_10/conv2d_10/Conv2D/ReadVariableOp", "PartitionedCall/PartitionedCall/model/tfc3_1/tf_conv_10/conv2d_10/BiasAdd/ReadVariableOp"], "device": "/device:CPU:0", "attr": {"epsilon": {"f": 0.0}, "num_args": {"i": "1"}, "fused_ops": {"list": {"s": ["Qmlhc0FkZA=="]}}, "strides": {"list": {"i": ["1", "1", "1", "1"]}}, "use_cudnn_on_gpu": {"b": true}, "T": {"type": "DT_FLOAT"}, "padding": {"s": "U0FNRQ=="}, "explicit_paddings": {"list": {}}, "dilations": {"list": {"i": ["1", "1", "1", "1"]}}, "data_format": {"s": "TkhXQw=="}}}, {"name": "PartitionedCall/PartitionedCall/model/tfc3_1/tf_conv_10/Sigmoid", "op": "Sigmoid", "input": ["PartitionedCall/PartitionedCall/model/tfc3_1/tf_conv_10/conv2d_10/BiasAdd"], "attr": {"T": {"type": "DT_FLOAT"}}}, {"name": "PartitionedCall/PartitionedCall/model/tfc3_1/tf_conv_10/mul_1", "op": "Mul", "input": ["PartitionedCall/PartitionedCall/model/tfc3_1/tf_conv_10/conv2d_10/BiasAdd", "PartitionedCall/PartitionedCall/model/tfc3_1/tf_conv_10/Sigmoid"], "attr": {"T": {"type": "DT_FLOAT"}}}, {"name": "PartitionedCall/PartitionedCall/model/tf_conv_15/sequential_5/tf_pad_3/Pad", "op": "Pad", "input": ["PartitionedCall/PartitionedCall/model/tfc3_1/tf_conv_10/mul_1", "PartitionedCall/PartitionedCall/model/tf_conv_15/sequential_5/tf_pad_3/Pad/paddings"], "attr": {"Tpaddings": {"type": "DT_INT32"}, "T": {"type": "DT_FLOAT"}}}, {"name": "PartitionedCall/PartitionedCall/model/tf_conv_15/sequential_5/conv2d_15/BiasAdd", "op": "_FusedConv2D", "input": ["PartitionedCall/PartitionedCall/model/tf_conv_15/sequential_5/tf_pad_3/Pad", "PartitionedCall/PartitionedCall/model/tf_conv_15/sequential_5/conv2d_15/Conv2D/ReadVariableOp", "PartitionedCall/PartitionedCall/model/tf_conv_15/sequential_5/conv2d_15/BiasAdd/ReadVariableOp"], "device": "/device:CPU:0", "attr": {"explicit_paddings": {"list": {}}, "num_args": {"i": "1"}, "fused_ops": {"list": {"s": ["Qmlhc0FkZA=="]}}, "padding": {"s": "VkFMSUQ="}, "T": {"type": "DT_FLOAT"}, "use_cudnn_on_gpu": {"b": true}, "epsilon": {"f": 0.0}, "data_format": {"s": "TkhXQw=="}, "dilations": {"list": {"i": ["1", "1", "1", "1"]}}, "strides": {"list": {"i": ["1", "2", "2", "1"]}}}}, {"name": "PartitionedCall/PartitionedCall/model/tf_conv_15/Sigmoid", "op": "Sigmoid", "input": ["PartitionedCall/PartitionedCall/model/tf_conv_15/sequential_5/conv2d_15/BiasAdd"], "attr": {"T": {"type": "DT_FLOAT"}}}, {"name": "PartitionedCall/PartitionedCall/model/tf_conv_15/mul_1", "op": "Mul", "input": ["PartitionedCall/PartitionedCall/model/tf_conv_15/sequential_5/conv2d_15/BiasAdd", "PartitionedCall/PartitionedCall/model/tf_conv_15/Sigmoid"], "attr": {"T": {"type": "DT_FLOAT"}}}, {"name": "PartitionedCall/PartitionedCall/model/tfc3_2/tf_conv_16/conv2d_16/BiasAdd", "op": "_FusedConv2D", "input": ["PartitionedCall/PartitionedCall/model/tf_conv_15/mul_1", "PartitionedCall/PartitionedCall/model/tfc3_2/tf_conv_16/conv2d_16/Conv2D/ReadVariableOp", "PartitionedCall/PartitionedCall/model/tfc3_2/tf_conv_16/conv2d_16/BiasAdd/ReadVariableOp"], "device": "/device:CPU:0", "attr": {"dilations": {"list": {"i": ["1", "1", "1", "1"]}}, "data_format": {"s": "TkhXQw=="}, "T": {"type": "DT_FLOAT"}, "strides": {"list": {"i": ["1", "1", "1", "1"]}}, "explicit_paddings": {"list": {}}, "epsilon": {"f": 0.0}, "num_args": {"i": "1"}, "padding": {"s": "U0FNRQ=="}, "fused_ops": {"list": {"s": ["Qmlhc0FkZA=="]}}, "use_cudnn_on_gpu": {"b": true}}}, {"name": "PartitionedCall/PartitionedCall/model/tfc3_2/tf_conv_17/conv2d_17/BiasAdd", "op": "_FusedConv2D", "input": ["PartitionedCall/PartitionedCall/model/tf_conv_15/mul_1", "PartitionedCall/PartitionedCall/model/tfc3_2/tf_conv_17/conv2d_17/Conv2D/ReadVariableOp", "PartitionedCall/PartitionedCall/model/tfc3_2/tf_conv_17/conv2d_17/BiasAdd/ReadVariableOp"], "device": "/device:CPU:0", "attr": {"strides": {"list": {"i": ["1", "1", "1", "1"]}}, "fused_ops": {"list": {"s": ["Qmlhc0FkZA=="]}}, "use_cudnn_on_gpu": {"b": true}, "data_format": {"s": "TkhXQw=="}, "padding": {"s": "U0FNRQ=="}, "dilations": {"list": {"i": ["1", "1", "1", "1"]}}, "explicit_paddings": {"list": {}}, "epsilon": {"f": 0.0}, "num_args": {"i": "1"}, "T": {"type": "DT_FLOAT"}}}, {"name": "PartitionedCall/PartitionedCall/model/tfc3_2/tf_conv_16/Sigmoid", "op": "Sigmoid", "input": ["PartitionedCall/PartitionedCall/model/tfc3_2/tf_conv_16/conv2d_16/BiasAdd"], "attr": {"T": {"type": "DT_FLOAT"}}}, {"name": "PartitionedCall/PartitionedCall/model/tfc3_2/tf_conv_17/Sigmoid", "op": "Sigmoid", "input": ["PartitionedCall/PartitionedCall/model/tfc3_2/tf_conv_17/conv2d_17/BiasAdd"], "attr": {"T": {"type": "DT_FLOAT"}}}, {"name": "PartitionedCall/PartitionedCall/model/tfc3_2/tf_conv_16/mul_1", "op": "Mul", "input": ["PartitionedCall/PartitionedCall/model/tfc3_2/tf_conv_16/conv2d_16/BiasAdd", "PartitionedCall/PartitionedCall/model/tfc3_2/tf_conv_16/Sigmoid"], "attr": {"T": {"type": "DT_FLOAT"}}}, {"name": "PartitionedCall/PartitionedCall/model/tfc3_2/tf_conv_17/mul_1", "op": "Mul", "input": ["PartitionedCall/PartitionedCall/model/tfc3_2/tf_conv_17/conv2d_17/BiasAdd", "PartitionedCall/PartitionedCall/model/tfc3_2/tf_conv_17/Sigmoid"], "attr": {"T": {"type": "DT_FLOAT"}}}, {"name": "PartitionedCall/PartitionedCall/model/tfc3_2/sequential_6/tf_bottleneck_3/tf_conv_19/conv2d_19/BiasAdd", "op": "_FusedConv2D", "input": ["PartitionedCall/PartitionedCall/model/tfc3_2/tf_conv_16/mul_1", "PartitionedCall/PartitionedCall/model/tfc3_2/sequential_6/tf_bottleneck_3/tf_conv_19/conv2d_19/Conv2D/ReadVariableOp", "PartitionedCall/PartitionedCall/model/tfc3_2/sequential_6/tf_bottleneck_3/tf_conv_19/conv2d_19/BiasAdd/ReadVariableOp"], "device": "/device:CPU:0", "attr": {"explicit_paddings": {"list": {}}, "num_args": {"i": "1"}, "padding": {"s": "U0FNRQ=="}, "T": {"type": "DT_FLOAT"}, "fused_ops": {"list": {"s": ["Qmlhc0FkZA=="]}}, "use_cudnn_on_gpu": {"b": true}, "dilations": {"list": {"i": ["1", "1", "1", "1"]}}, "data_format": {"s": "TkhXQw=="}, "epsilon": {"f": 0.0}, "strides": {"list": {"i": ["1", "1", "1", "1"]}}}}, {"name": "PartitionedCall/PartitionedCall/model/tfc3_2/sequential_6/tf_bottleneck_3/tf_conv_19/Sigmoid", "op": "Sigmoid", "input": ["PartitionedCall/PartitionedCall/model/tfc3_2/sequential_6/tf_bottleneck_3/tf_conv_19/conv2d_19/BiasAdd"], "attr": {"T": {"type": "DT_FLOAT"}}}, {"name": "PartitionedCall/PartitionedCall/model/tfc3_2/sequential_6/tf_bottleneck_3/tf_conv_19/mul_1", "op": "Mul", "input": ["PartitionedCall/PartitionedCall/model/tfc3_2/sequential_6/tf_bottleneck_3/tf_conv_19/conv2d_19/BiasAdd", "PartitionedCall/PartitionedCall/model/tfc3_2/sequential_6/tf_bottleneck_3/tf_conv_19/Sigmoid"], "attr": {"T": {"type": "DT_FLOAT"}}}, {"name": "PartitionedCall/PartitionedCall/model/tfc3_2/sequential_6/tf_bottleneck_3/tf_conv_20/conv2d_20/BiasAdd", "op": "_FusedConv2D", "input": ["PartitionedCall/PartitionedCall/model/tfc3_2/sequential_6/tf_bottleneck_3/tf_conv_19/mul_1", "PartitionedCall/PartitionedCall/model/tfc3_2/sequential_6/tf_bottleneck_3/tf_conv_20/conv2d_20/Conv2D/ReadVariableOp", "PartitionedCall/PartitionedCall/model/tfc3_2/sequential_6/tf_bottleneck_3/tf_conv_20/conv2d_20/BiasAdd/ReadVariableOp"], "device": "/device:CPU:0", "attr": {"data_format": {"s": "TkhXQw=="}, "epsilon": {"f": 0.0}, "dilations": {"list": {"i": ["1", "1", "1", "1"]}}, "strides": {"list": {"i": ["1", "1", "1", "1"]}}, "explicit_paddings": {"list": {}}, "padding": {"s": "U0FNRQ=="}, "T": {"type": "DT_FLOAT"}, "fused_ops": {"list": {"s": ["Qmlhc0FkZA=="]}}, "num_args": {"i": "1"}, "use_cudnn_on_gpu": {"b": true}}}, {"name": "PartitionedCall/PartitionedCall/model/tfc3_2/sequential_6/tf_bottleneck_3/tf_conv_20/Sigmoid", "op": "Sigmoid", "input": ["PartitionedCall/PartitionedCall/model/tfc3_2/sequential_6/tf_bottleneck_3/tf_conv_20/conv2d_20/BiasAdd"], "attr": {"T": {"type": "DT_FLOAT"}}}, {"name": "PartitionedCall/PartitionedCall/model/tfc3_2/sequential_6/tf_bottleneck_3/tf_conv_20/mul_1", "op": "Mul", "input": ["PartitionedCall/PartitionedCall/model/tfc3_2/sequential_6/tf_bottleneck_3/tf_conv_20/conv2d_20/BiasAdd", "PartitionedCall/PartitionedCall/model/tfc3_2/sequential_6/tf_bottleneck_3/tf_conv_20/Sigmoid"], "attr": {"T": {"type": "DT_FLOAT"}}}, {"name": "PartitionedCall/PartitionedCall/model/tfc3_2/sequential_6/tf_bottleneck_3/add", "op": "AddV2", "input": ["PartitionedCall/PartitionedCall/model/tfc3_2/tf_conv_16/mul_1", "PartitionedCall/PartitionedCall/model/tfc3_2/sequential_6/tf_bottleneck_3/tf_conv_20/mul_1"], "attr": {"T": {"type": "DT_FLOAT"}}}, {"name": "PartitionedCall/PartitionedCall/model/tfc3_2/sequential_6/tf_bottleneck_4/tf_conv_21/conv2d_21/BiasAdd", "op": "_FusedConv2D", "input": ["PartitionedCall/PartitionedCall/model/tfc3_2/sequential_6/tf_bottleneck_3/add", "PartitionedCall/PartitionedCall/model/tfc3_2/sequential_6/tf_bottleneck_4/tf_conv_21/conv2d_21/Conv2D/ReadVariableOp", "PartitionedCall/PartitionedCall/model/tfc3_2/sequential_6/tf_bottleneck_4/tf_conv_21/conv2d_21/BiasAdd/ReadVariableOp"], "device": "/device:CPU:0", "attr": {"use_cudnn_on_gpu": {"b": true}, "data_format": {"s": "TkhXQw=="}, "dilations": {"list": {"i": ["1", "1", "1", "1"]}}, "epsilon": {"f": 0.0}, "T": {"type": "DT_FLOAT"}, "strides": {"list": {"i": ["1", "1", "1", "1"]}}, "num_args": {"i": "1"}, "explicit_paddings": {"list": {}}, "fused_ops": {"list": {"s": ["Qmlhc0FkZA=="]}}, "padding": {"s": "U0FNRQ=="}}}, {"name": "PartitionedCall/PartitionedCall/model/tfc3_2/sequential_6/tf_bottleneck_4/tf_conv_21/Sigmoid", "op": "Sigmoid", "input": ["PartitionedCall/PartitionedCall/model/tfc3_2/sequential_6/tf_bottleneck_4/tf_conv_21/conv2d_21/BiasAdd"], "attr": {"T": {"type": "DT_FLOAT"}}}, {"name": "PartitionedCall/PartitionedCall/model/tfc3_2/sequential_6/tf_bottleneck_4/tf_conv_21/mul_1", "op": "Mul", "input": ["PartitionedCall/PartitionedCall/model/tfc3_2/sequential_6/tf_bottleneck_4/tf_conv_21/conv2d_21/BiasAdd", "PartitionedCall/PartitionedCall/model/tfc3_2/sequential_6/tf_bottleneck_4/tf_conv_21/Sigmoid"], "attr": {"T": {"type": "DT_FLOAT"}}}, {"name": "PartitionedCall/PartitionedCall/model/tfc3_2/sequential_6/tf_bottleneck_4/tf_conv_22/conv2d_22/BiasAdd", "op": "_FusedConv2D", "input": ["PartitionedCall/PartitionedCall/model/tfc3_2/sequential_6/tf_bottleneck_4/tf_conv_21/mul_1", "PartitionedCall/PartitionedCall/model/tfc3_2/sequential_6/tf_bottleneck_4/tf_conv_22/conv2d_22/Conv2D/ReadVariableOp", "PartitionedCall/PartitionedCall/model/tfc3_2/sequential_6/tf_bottleneck_4/tf_conv_22/conv2d_22/BiasAdd/ReadVariableOp"], "device": "/device:CPU:0", "attr": {"epsilon": {"f": 0.0}, "explicit_paddings": {"list": {}}, "padding": {"s": "U0FNRQ=="}, "fused_ops": {"list": {"s": ["Qmlhc0FkZA=="]}}, "strides": {"list": {"i": ["1", "1", "1", "1"]}}, "num_args": {"i": "1"}, "use_cudnn_on_gpu": {"b": true}, "dilations": {"list": {"i": ["1", "1", "1", "1"]}}, "T": {"type": "DT_FLOAT"}, "data_format": {"s": "TkhXQw=="}}}, {"name": "PartitionedCall/PartitionedCall/model/tfc3_2/sequential_6/tf_bottleneck_4/tf_conv_22/Sigmoid", "op": "Sigmoid", "input": ["PartitionedCall/PartitionedCall/model/tfc3_2/sequential_6/tf_bottleneck_4/tf_conv_22/conv2d_22/BiasAdd"], "attr": {"T": {"type": "DT_FLOAT"}}}, {"name": "PartitionedCall/PartitionedCall/model/tfc3_2/sequential_6/tf_bottleneck_4/tf_conv_22/mul_1", "op": "Mul", "input": ["PartitionedCall/PartitionedCall/model/tfc3_2/sequential_6/tf_bottleneck_4/tf_conv_22/conv2d_22/BiasAdd", "PartitionedCall/PartitionedCall/model/tfc3_2/sequential_6/tf_bottleneck_4/tf_conv_22/Sigmoid"], "attr": {"T": {"type": "DT_FLOAT"}}}, {"name": "PartitionedCall/PartitionedCall/model/tfc3_2/sequential_6/tf_bottleneck_4/add", "op": "AddV2", "input": ["PartitionedCall/PartitionedCall/model/tfc3_2/sequential_6/tf_bottleneck_3/add", "PartitionedCall/PartitionedCall/model/tfc3_2/sequential_6/tf_bottleneck_4/tf_conv_22/mul_1"], "attr": {"T": {"type": "DT_FLOAT"}}}, {"name": "PartitionedCall/PartitionedCall/model/tfc3_2/sequential_6/tf_bottleneck_5/tf_conv_23/conv2d_23/BiasAdd", "op": "_FusedConv2D", "input": ["PartitionedCall/PartitionedCall/model/tfc3_2/sequential_6/tf_bottleneck_4/add", "PartitionedCall/PartitionedCall/model/tfc3_2/sequential_6/tf_bottleneck_5/tf_conv_23/conv2d_23/Conv2D/ReadVariableOp", "PartitionedCall/PartitionedCall/model/tfc3_2/sequential_6/tf_bottleneck_5/tf_conv_23/conv2d_23/BiasAdd/ReadVariableOp"], "device": "/device:CPU:0", "attr": {"dilations": {"list": {"i": ["1", "1", "1", "1"]}}, "strides": {"list": {"i": ["1", "1", "1", "1"]}}, "data_format": {"s": "TkhXQw=="}, "padding": {"s": "U0FNRQ=="}, "T": {"type": "DT_FLOAT"}, "explicit_paddings": {"list": {}}, "epsilon": {"f": 0.0}, "num_args": {"i": "1"}, "fused_ops": {"list": {"s": ["Qmlhc0FkZA=="]}}, "use_cudnn_on_gpu": {"b": true}}}, {"name": "PartitionedCall/PartitionedCall/model/tfc3_2/sequential_6/tf_bottleneck_5/tf_conv_23/Sigmoid", "op": "Sigmoid", "input": ["PartitionedCall/PartitionedCall/model/tfc3_2/sequential_6/tf_bottleneck_5/tf_conv_23/conv2d_23/BiasAdd"], "attr": {"T": {"type": "DT_FLOAT"}}}, {"name": "PartitionedCall/PartitionedCall/model/tfc3_2/sequential_6/tf_bottleneck_5/tf_conv_23/mul_1", "op": "Mul", "input": ["PartitionedCall/PartitionedCall/model/tfc3_2/sequential_6/tf_bottleneck_5/tf_conv_23/conv2d_23/BiasAdd", "PartitionedCall/PartitionedCall/model/tfc3_2/sequential_6/tf_bottleneck_5/tf_conv_23/Sigmoid"], "attr": {"T": {"type": "DT_FLOAT"}}}, {"name": "PartitionedCall/PartitionedCall/model/tfc3_2/sequential_6/tf_bottleneck_5/tf_conv_24/conv2d_24/BiasAdd", "op": "_FusedConv2D", "input": ["PartitionedCall/PartitionedCall/model/tfc3_2/sequential_6/tf_bottleneck_5/tf_conv_23/mul_1", "PartitionedCall/PartitionedCall/model/tfc3_2/sequential_6/tf_bottleneck_5/tf_conv_24/conv2d_24/Conv2D/ReadVariableOp", "PartitionedCall/PartitionedCall/model/tfc3_2/sequential_6/tf_bottleneck_5/tf_conv_24/conv2d_24/BiasAdd/ReadVariableOp"], "device": "/device:CPU:0", "attr": {"data_format": {"s": "TkhXQw=="}, "fused_ops": {"list": {"s": ["Qmlhc0FkZA=="]}}, "padding": {"s": "U0FNRQ=="}, "epsilon": {"f": 0.0}, "T": {"type": "DT_FLOAT"}, "explicit_paddings": {"list": {}}, "strides": {"list": {"i": ["1", "1", "1", "1"]}}, "num_args": {"i": "1"}, "use_cudnn_on_gpu": {"b": true}, "dilations": {"list": {"i": ["1", "1", "1", "1"]}}}}, {"name": "PartitionedCall/PartitionedCall/model/tfc3_2/sequential_6/tf_bottleneck_5/tf_conv_24/Sigmoid", "op": "Sigmoid", "input": ["PartitionedCall/PartitionedCall/model/tfc3_2/sequential_6/tf_bottleneck_5/tf_conv_24/conv2d_24/BiasAdd"], "attr": {"T": {"type": "DT_FLOAT"}}}, {"name": "PartitionedCall/PartitionedCall/model/tfc3_2/sequential_6/tf_bottleneck_5/tf_conv_24/mul_1", "op": "Mul", "input": ["PartitionedCall/PartitionedCall/model/tfc3_2/sequential_6/tf_bottleneck_5/tf_conv_24/conv2d_24/BiasAdd", "PartitionedCall/PartitionedCall/model/tfc3_2/sequential_6/tf_bottleneck_5/tf_conv_24/Sigmoid"], "attr": {"T": {"type": "DT_FLOAT"}}}, {"name": "PartitionedCall/PartitionedCall/model/tfc3_2/sequential_6/tf_bottleneck_5/add", "op": "AddV2", "input": ["PartitionedCall/PartitionedCall/model/tfc3_2/sequential_6/tf_bottleneck_4/add", "PartitionedCall/PartitionedCall/model/tfc3_2/sequential_6/tf_bottleneck_5/tf_conv_24/mul_1"], "attr": {"T": {"type": "DT_FLOAT"}}}, {"name": "PartitionedCall/PartitionedCall/model/tfc3_2/concat", "op": "ConcatV2", "input": ["PartitionedCall/PartitionedCall/model/tfc3_2/sequential_6/tf_bottleneck_5/add", "PartitionedCall/PartitionedCall/model/tfc3_2/tf_conv_17/mul_1", "PartitionedCall/PartitionedCall/model/tfc3_2/concat/axis"], "attr": {"N": {"i": "2"}, "Tidx": {"type": "DT_INT32"}, "T": {"type": "DT_FLOAT"}}}, {"name": "PartitionedCall/PartitionedCall/model/tfc3_2/tf_conv_18/conv2d_18/BiasAdd", "op": "_FusedConv2D", "input": ["PartitionedCall/PartitionedCall/model/tfc3_2/concat", "PartitionedCall/PartitionedCall/model/tfc3_2/tf_conv_18/conv2d_18/Conv2D/ReadVariableOp", "PartitionedCall/PartitionedCall/model/tfc3_2/tf_conv_18/conv2d_18/BiasAdd/ReadVariableOp"], "device": "/device:CPU:0", "attr": {"data_format": {"s": "TkhXQw=="}, "T": {"type": "DT_FLOAT"}, "strides": {"list": {"i": ["1", "1", "1", "1"]}}, "dilations": {"list": {"i": ["1", "1", "1", "1"]}}, "explicit_paddings": {"list": {}}, "num_args": {"i": "1"}, "epsilon": {"f": 0.0}, "fused_ops": {"list": {"s": ["Qmlhc0FkZA=="]}}, "padding": {"s": "U0FNRQ=="}, "use_cudnn_on_gpu": {"b": true}}}, {"name": "PartitionedCall/PartitionedCall/model/tfc3_2/tf_conv_18/Sigmoid", "op": "Sigmoid", "input": ["PartitionedCall/PartitionedCall/model/tfc3_2/tf_conv_18/conv2d_18/BiasAdd"], "attr": {"T": {"type": "DT_FLOAT"}}}, {"name": "PartitionedCall/PartitionedCall/model/tfc3_2/tf_conv_18/mul_1", "op": "Mul", "input": ["PartitionedCall/PartitionedCall/model/tfc3_2/tf_conv_18/conv2d_18/BiasAdd", "PartitionedCall/PartitionedCall/model/tfc3_2/tf_conv_18/Sigmoid"], "attr": {"T": {"type": "DT_FLOAT"}}}, {"name": "PartitionedCall/PartitionedCall/model/tf_conv_25/sequential_7/tf_pad_4/Pad", "op": "Pad", "input": ["PartitionedCall/PartitionedCall/model/tfc3_2/tf_conv_18/mul_1", "PartitionedCall/PartitionedCall/model/tf_conv_25/sequential_7/tf_pad_4/Pad/paddings"], "attr": {"Tpaddings": {"type": "DT_INT32"}, "T": {"type": "DT_FLOAT"}}}, {"name": "PartitionedCall/PartitionedCall/model/tf_conv_25/sequential_7/conv2d_25/BiasAdd", "op": "_FusedConv2D", "input": ["PartitionedCall/PartitionedCall/model/tf_conv_25/sequential_7/tf_pad_4/Pad", "PartitionedCall/PartitionedCall/model/tf_conv_25/sequential_7/conv2d_25/Conv2D/ReadVariableOp", "PartitionedCall/PartitionedCall/model/tf_conv_25/sequential_7/conv2d_25/BiasAdd/ReadVariableOp"], "device": "/device:CPU:0", "attr": {"data_format": {"s": "TkhXQw=="}, "dilations": {"list": {"i": ["1", "1", "1", "1"]}}, "T": {"type": "DT_FLOAT"}, "epsilon": {"f": 0.0}, "padding": {"s": "VkFMSUQ="}, "explicit_paddings": {"list": {}}, "num_args": {"i": "1"}, "fused_ops": {"list": {"s": ["Qmlhc0FkZA=="]}}, "use_cudnn_on_gpu": {"b": true}, "strides": {"list": {"i": ["1", "2", "2", "1"]}}}}, {"name": "PartitionedCall/PartitionedCall/model/tf_conv_25/Sigmoid", "op": "Sigmoid", "input": ["PartitionedCall/PartitionedCall/model/tf_conv_25/sequential_7/conv2d_25/BiasAdd"], "attr": {"T": {"type": "DT_FLOAT"}}}, {"name": "PartitionedCall/PartitionedCall/model/tf_conv_25/mul_1", "op": "Mul", "input": ["PartitionedCall/PartitionedCall/model/tf_conv_25/sequential_7/conv2d_25/BiasAdd", "PartitionedCall/PartitionedCall/model/tf_conv_25/Sigmoid"], "attr": {"T": {"type": "DT_FLOAT"}}}, {"name": "PartitionedCall/PartitionedCall/model/tfc3_3/tf_conv_26/conv2d_26/BiasAdd", "op": "_FusedConv2D", "input": ["PartitionedCall/PartitionedCall/model/tf_conv_25/mul_1", "PartitionedCall/PartitionedCall/model/tfc3_3/tf_conv_26/conv2d_26/Conv2D/ReadVariableOp", "PartitionedCall/PartitionedCall/model/tfc3_3/tf_conv_26/conv2d_26/BiasAdd/ReadVariableOp"], "device": "/device:CPU:0", "attr": {"padding": {"s": "U0FNRQ=="}, "data_format": {"s": "TkhXQw=="}, "dilations": {"list": {"i": ["1", "1", "1", "1"]}}, "explicit_paddings": {"list": {}}, "num_args": {"i": "1"}, "epsilon": {"f": 0.0}, "fused_ops": {"list": {"s": ["Qmlhc0FkZA=="]}}, "T": {"type": "DT_FLOAT"}, "use_cudnn_on_gpu": {"b": true}, "strides": {"list": {"i": ["1", "1", "1", "1"]}}}}, {"name": "PartitionedCall/PartitionedCall/model/tfc3_3/tf_conv_27/conv2d_27/BiasAdd", "op": "_FusedConv2D", "input": ["PartitionedCall/PartitionedCall/model/tf_conv_25/mul_1", "PartitionedCall/PartitionedCall/model/tfc3_3/tf_conv_27/conv2d_27/Conv2D/ReadVariableOp", "PartitionedCall/PartitionedCall/model/tfc3_3/tf_conv_27/conv2d_27/BiasAdd/ReadVariableOp"], "device": "/device:CPU:0", "attr": {"epsilon": {"f": 0.0}, "explicit_paddings": {"list": {}}, "fused_ops": {"list": {"s": ["Qmlhc0FkZA=="]}}, "num_args": {"i": "1"}, "use_cudnn_on_gpu": {"b": true}, "strides": {"list": {"i": ["1", "1", "1", "1"]}}, "T": {"type": "DT_FLOAT"}, "padding": {"s": "U0FNRQ=="}, "dilations": {"list": {"i": ["1", "1", "1", "1"]}}, "data_format": {"s": "TkhXQw=="}}}, {"name": "PartitionedCall/PartitionedCall/model/tfc3_3/tf_conv_26/Sigmoid", "op": "Sigmoid", "input": ["PartitionedCall/PartitionedCall/model/tfc3_3/tf_conv_26/conv2d_26/BiasAdd"], "attr": {"T": {"type": "DT_FLOAT"}}}, {"name": "PartitionedCall/PartitionedCall/model/tfc3_3/tf_conv_27/Sigmoid", "op": "Sigmoid", "input": ["PartitionedCall/PartitionedCall/model/tfc3_3/tf_conv_27/conv2d_27/BiasAdd"], "attr": {"T": {"type": "DT_FLOAT"}}}, {"name": "PartitionedCall/PartitionedCall/model/tfc3_3/tf_conv_26/mul_1", "op": "Mul", "input": ["PartitionedCall/PartitionedCall/model/tfc3_3/tf_conv_26/conv2d_26/BiasAdd", "PartitionedCall/PartitionedCall/model/tfc3_3/tf_conv_26/Sigmoid"], "attr": {"T": {"type": "DT_FLOAT"}}}, {"name": "PartitionedCall/PartitionedCall/model/tfc3_3/tf_conv_27/mul_1", "op": "Mul", "input": ["PartitionedCall/PartitionedCall/model/tfc3_3/tf_conv_27/conv2d_27/BiasAdd", "PartitionedCall/PartitionedCall/model/tfc3_3/tf_conv_27/Sigmoid"], "attr": {"T": {"type": "DT_FLOAT"}}}, {"name": "PartitionedCall/PartitionedCall/model/tfc3_3/sequential_8/tf_bottleneck_6/tf_conv_29/conv2d_29/BiasAdd", "op": "_FusedConv2D", "input": ["PartitionedCall/PartitionedCall/model/tfc3_3/tf_conv_26/mul_1", "PartitionedCall/PartitionedCall/model/tfc3_3/sequential_8/tf_bottleneck_6/tf_conv_29/conv2d_29/Conv2D/ReadVariableOp", "PartitionedCall/PartitionedCall/model/tfc3_3/sequential_8/tf_bottleneck_6/tf_conv_29/conv2d_29/BiasAdd/ReadVariableOp"], "device": "/device:CPU:0", "attr": {"padding": {"s": "U0FNRQ=="}, "T": {"type": "DT_FLOAT"}, "dilations": {"list": {"i": ["1", "1", "1", "1"]}}, "strides": {"list": {"i": ["1", "1", "1", "1"]}}, "data_format": {"s": "TkhXQw=="}, "fused_ops": {"list": {"s": ["Qmlhc0FkZA=="]}}, "explicit_paddings": {"list": {}}, "epsilon": {"f": 0.0}, "num_args": {"i": "1"}, "use_cudnn_on_gpu": {"b": true}}}, {"name": "PartitionedCall/PartitionedCall/model/tfc3_3/sequential_8/tf_bottleneck_6/tf_conv_29/Sigmoid", "op": "Sigmoid", "input": ["PartitionedCall/PartitionedCall/model/tfc3_3/sequential_8/tf_bottleneck_6/tf_conv_29/conv2d_29/BiasAdd"], "attr": {"T": {"type": "DT_FLOAT"}}}, {"name": "PartitionedCall/PartitionedCall/model/tfc3_3/sequential_8/tf_bottleneck_6/tf_conv_29/mul_1", "op": "Mul", "input": ["PartitionedCall/PartitionedCall/model/tfc3_3/sequential_8/tf_bottleneck_6/tf_conv_29/conv2d_29/BiasAdd", "PartitionedCall/PartitionedCall/model/tfc3_3/sequential_8/tf_bottleneck_6/tf_conv_29/Sigmoid"], "attr": {"T": {"type": "DT_FLOAT"}}}, {"name": "PartitionedCall/PartitionedCall/model/tfc3_3/sequential_8/tf_bottleneck_6/tf_conv_30/conv2d_30/BiasAdd", "op": "_FusedConv2D", "input": ["PartitionedCall/PartitionedCall/model/tfc3_3/sequential_8/tf_bottleneck_6/tf_conv_29/mul_1", "PartitionedCall/PartitionedCall/model/tfc3_3/sequential_8/tf_bottleneck_6/tf_conv_30/conv2d_30/Conv2D/ReadVariableOp", "PartitionedCall/PartitionedCall/model/tfc3_3/sequential_8/tf_bottleneck_6/tf_conv_30/conv2d_30/BiasAdd/ReadVariableOp"], "device": "/device:CPU:0", "attr": {"strides": {"list": {"i": ["1", "1", "1", "1"]}}, "padding": {"s": "U0FNRQ=="}, "data_format": {"s": "TkhXQw=="}, "T": {"type": "DT_FLOAT"}, "explicit_paddings": {"list": {}}, "epsilon": {"f": 0.0}, "num_args": {"i": "1"}, "use_cudnn_on_gpu": {"b": true}, "fused_ops": {"list": {"s": ["Qmlhc0FkZA=="]}}, "dilations": {"list": {"i": ["1", "1", "1", "1"]}}}}, {"name": "PartitionedCall/PartitionedCall/model/tfc3_3/sequential_8/tf_bottleneck_6/tf_conv_30/Sigmoid", "op": "Sigmoid", "input": ["PartitionedCall/PartitionedCall/model/tfc3_3/sequential_8/tf_bottleneck_6/tf_conv_30/conv2d_30/BiasAdd"], "attr": {"T": {"type": "DT_FLOAT"}}}, {"name": "PartitionedCall/PartitionedCall/model/tfc3_3/sequential_8/tf_bottleneck_6/tf_conv_30/mul_1", "op": "Mul", "input": ["PartitionedCall/PartitionedCall/model/tfc3_3/sequential_8/tf_bottleneck_6/tf_conv_30/conv2d_30/BiasAdd", "PartitionedCall/PartitionedCall/model/tfc3_3/sequential_8/tf_bottleneck_6/tf_conv_30/Sigmoid"], "attr": {"T": {"type": "DT_FLOAT"}}}, {"name": "PartitionedCall/PartitionedCall/model/tfc3_3/sequential_8/tf_bottleneck_6/add", "op": "AddV2", "input": ["PartitionedCall/PartitionedCall/model/tfc3_3/tf_conv_26/mul_1", "PartitionedCall/PartitionedCall/model/tfc3_3/sequential_8/tf_bottleneck_6/tf_conv_30/mul_1"], "attr": {"T": {"type": "DT_FLOAT"}}}, {"name": "PartitionedCall/PartitionedCall/model/tfc3_3/concat", "op": "ConcatV2", "input": ["PartitionedCall/PartitionedCall/model/tfc3_3/sequential_8/tf_bottleneck_6/add", "PartitionedCall/PartitionedCall/model/tfc3_3/tf_conv_27/mul_1", "PartitionedCall/PartitionedCall/model/tfc3_3/concat/axis"], "attr": {"T": {"type": "DT_FLOAT"}, "N": {"i": "2"}, "Tidx": {"type": "DT_INT32"}}}, {"name": "PartitionedCall/PartitionedCall/model/tfc3_3/tf_conv_28/conv2d_28/BiasAdd", "op": "_FusedConv2D", "input": ["PartitionedCall/PartitionedCall/model/tfc3_3/concat", "PartitionedCall/PartitionedCall/model/tfc3_3/tf_conv_28/conv2d_28/Conv2D/ReadVariableOp", "PartitionedCall/PartitionedCall/model/tfc3_3/tf_conv_28/conv2d_28/BiasAdd/ReadVariableOp"], "device": "/device:CPU:0", "attr": {"fused_ops": {"list": {"s": ["Qmlhc0FkZA=="]}}, "explicit_paddings": {"list": {}}, "epsilon": {"f": 0.0}, "num_args": {"i": "1"}, "use_cudnn_on_gpu": {"b": true}, "padding": {"s": "U0FNRQ=="}, "dilations": {"list": {"i": ["1", "1", "1", "1"]}}, "T": {"type": "DT_FLOAT"}, "strides": {"list": {"i": ["1", "1", "1", "1"]}}, "data_format": {"s": "TkhXQw=="}}}, {"name": "PartitionedCall/PartitionedCall/model/tfc3_3/tf_conv_28/Sigmoid", "op": "Sigmoid", "input": ["PartitionedCall/PartitionedCall/model/tfc3_3/tf_conv_28/conv2d_28/BiasAdd"], "attr": {"T": {"type": "DT_FLOAT"}}}, {"name": "PartitionedCall/PartitionedCall/model/tfc3_3/tf_conv_28/mul_1", "op": "Mul", "input": ["PartitionedCall/PartitionedCall/model/tfc3_3/tf_conv_28/conv2d_28/BiasAdd", "PartitionedCall/PartitionedCall/model/tfc3_3/tf_conv_28/Sigmoid"], "attr": {"T": {"type": "DT_FLOAT"}}}, {"name": "PartitionedCall/PartitionedCall/model/tfsppf/tf_conv_31/conv2d_31/BiasAdd", "op": "_FusedConv2D", "input": ["PartitionedCall/PartitionedCall/model/tfc3_3/tf_conv_28/mul_1", "PartitionedCall/PartitionedCall/model/tfsppf/tf_conv_31/conv2d_31/Conv2D/ReadVariableOp", "PartitionedCall/PartitionedCall/model/tfsppf/tf_conv_31/conv2d_31/BiasAdd/ReadVariableOp"], "device": "/device:CPU:0", "attr": {"use_cudnn_on_gpu": {"b": true}, "strides": {"list": {"i": ["1", "1", "1", "1"]}}, "fused_ops": {"list": {"s": ["Qmlhc0FkZA=="]}}, "T": {"type": "DT_FLOAT"}, "dilations": {"list": {"i": ["1", "1", "1", "1"]}}, "data_format": {"s": "TkhXQw=="}, "explicit_paddings": {"list": {}}, "num_args": {"i": "1"}, "padding": {"s": "U0FNRQ=="}, "epsilon": {"f": 0.0}}}, {"name": "PartitionedCall/PartitionedCall/model/tfsppf/tf_conv_31/Sigmoid", "op": "Sigmoid", "input": ["PartitionedCall/PartitionedCall/model/tfsppf/tf_conv_31/conv2d_31/BiasAdd"], "attr": {"T": {"type": "DT_FLOAT"}}}, {"name": "PartitionedCall/PartitionedCall/model/tfsppf/tf_conv_31/mul_1", "op": "Mul", "input": ["PartitionedCall/PartitionedCall/model/tfsppf/tf_conv_31/conv2d_31/BiasAdd", "PartitionedCall/PartitionedCall/model/tfsppf/tf_conv_31/Sigmoid"], "attr": {"T": {"type": "DT_FLOAT"}}}, {"name": "PartitionedCall/PartitionedCall/model/tfsppf/max_pooling2d/MaxPool", "op": "MaxPool", "input": ["PartitionedCall/PartitionedCall/model/tfsppf/tf_conv_31/mul_1"], "attr": {"explicit_paddings": {"list": {}}, "ksize": {"list": {"i": ["1", "5", "5", "1"]}}, "data_format": {"s": "TkhXQw=="}, "padding": {"s": "U0FNRQ=="}, "strides": {"list": {"i": ["1", "1", "1", "1"]}}, "T": {"type": "DT_FLOAT"}}}, {"name": "PartitionedCall/PartitionedCall/model/tfsppf/max_pooling2d/MaxPool_1", "op": "MaxPool", "input": ["PartitionedCall/PartitionedCall/model/tfsppf/max_pooling2d/MaxPool"], "attr": {"padding": {"s": "U0FNRQ=="}, "data_format": {"s": "TkhXQw=="}, "explicit_paddings": {"list": {}}, "ksize": {"list": {"i": ["1", "5", "5", "1"]}}, "strides": {"list": {"i": ["1", "1", "1", "1"]}}, "T": {"type": "DT_FLOAT"}}}, {"name": "PartitionedCall/PartitionedCall/model/tfsppf/max_pooling2d/MaxPool_2", "op": "MaxPool", "input": ["PartitionedCall/PartitionedCall/model/tfsppf/max_pooling2d/MaxPool_1"], "attr": {"explicit_paddings": {"list": {}}, "ksize": {"list": {"i": ["1", "5", "5", "1"]}}, "padding": {"s": "U0FNRQ=="}, "T": {"type": "DT_FLOAT"}, "data_format": {"s": "TkhXQw=="}, "strides": {"list": {"i": ["1", "1", "1", "1"]}}}}, {"name": "PartitionedCall/PartitionedCall/model/tfsppf/concat", "op": "ConcatV2", "input": ["PartitionedCall/PartitionedCall/model/tfsppf/tf_conv_31/mul_1", "PartitionedCall/PartitionedCall/model/tfsppf/max_pooling2d/MaxPool", "PartitionedCall/PartitionedCall/model/tfsppf/max_pooling2d/MaxPool_1", "PartitionedCall/PartitionedCall/model/tfsppf/max_pooling2d/MaxPool_2", "PartitionedCall/PartitionedCall/model/tfsppf/concat/axis"], "attr": {"T": {"type": "DT_FLOAT"}, "N": {"i": "4"}, "Tidx": {"type": "DT_INT32"}}}, {"name": "PartitionedCall/PartitionedCall/model/tfsppf/tf_conv_32/conv2d_32/BiasAdd", "op": "_FusedConv2D", "input": ["PartitionedCall/PartitionedCall/model/tfsppf/concat", "PartitionedCall/PartitionedCall/model/tfsppf/tf_conv_32/conv2d_32/Conv2D/ReadVariableOp", "PartitionedCall/PartitionedCall/model/tfsppf/tf_conv_32/conv2d_32/BiasAdd/ReadVariableOp"], "device": "/device:CPU:0", "attr": {"T": {"type": "DT_FLOAT"}, "padding": {"s": "U0FNRQ=="}, "explicit_paddings": {"list": {}}, "data_format": {"s": "TkhXQw=="}, "epsilon": {"f": 0.0}, "dilations": {"list": {"i": ["1", "1", "1", "1"]}}, "num_args": {"i": "1"}, "fused_ops": {"list": {"s": ["Qmlhc0FkZA=="]}}, "strides": {"list": {"i": ["1", "1", "1", "1"]}}, "use_cudnn_on_gpu": {"b": true}}}, {"name": "PartitionedCall/PartitionedCall/model/tfsppf/tf_conv_32/Sigmoid", "op": "Sigmoid", "input": ["PartitionedCall/PartitionedCall/model/tfsppf/tf_conv_32/conv2d_32/BiasAdd"], "attr": {"T": {"type": "DT_FLOAT"}}}, {"name": "PartitionedCall/PartitionedCall/model/tfsppf/tf_conv_32/mul_1", "op": "Mul", "input": ["PartitionedCall/PartitionedCall/model/tfsppf/tf_conv_32/conv2d_32/BiasAdd", "PartitionedCall/PartitionedCall/model/tfsppf/tf_conv_32/Sigmoid"], "attr": {"T": {"type": "DT_FLOAT"}}}, {"name": "PartitionedCall/PartitionedCall/model/tf_conv_33/conv2d_33/BiasAdd", "op": "_FusedConv2D", "input": ["PartitionedCall/PartitionedCall/model/tfsppf/tf_conv_32/mul_1", "PartitionedCall/PartitionedCall/model/tf_conv_33/conv2d_33/Conv2D/ReadVariableOp", "PartitionedCall/PartitionedCall/model/tf_conv_33/conv2d_33/BiasAdd/ReadVariableOp"], "device": "/device:CPU:0", "attr": {"data_format": {"s": "TkhXQw=="}, "fused_ops": {"list": {"s": ["Qmlhc0FkZA=="]}}, "padding": {"s": "U0FNRQ=="}, "T": {"type": "DT_FLOAT"}, "explicit_paddings": {"list": {}}, "strides": {"list": {"i": ["1", "1", "1", "1"]}}, "epsilon": {"f": 0.0}, "num_args": {"i": "1"}, "use_cudnn_on_gpu": {"b": true}, "dilations": {"list": {"i": ["1", "1", "1", "1"]}}}}, {"name": "PartitionedCall/PartitionedCall/model/tf_conv_33/Sigmoid", "op": "Sigmoid", "input": ["PartitionedCall/PartitionedCall/model/tf_conv_33/conv2d_33/BiasAdd"], "attr": {"T": {"type": "DT_FLOAT"}}}, {"name": "PartitionedCall/PartitionedCall/model/tf_conv_33/mul_1", "op": "Mul", "input": ["PartitionedCall/PartitionedCall/model/tf_conv_33/conv2d_33/BiasAdd", "PartitionedCall/PartitionedCall/model/tf_conv_33/Sigmoid"], "attr": {"T": {"type": "DT_FLOAT"}}}, {"name": "PartitionedCall/PartitionedCall/model/tf_upsample/resize/ResizeNearestNeighbor", "op": "ResizeNearestNeighbor", "input": ["PartitionedCall/PartitionedCall/model/tf_conv_33/mul_1", "PartitionedCall/PartitionedCall/model/tf_upsample/resize/size"], "attr": {"half_pixel_centers": {"b": true}, "align_corners": {"b": false}, "T": {"type": "DT_FLOAT"}}}, {"name": "PartitionedCall/PartitionedCall/model/tf_concat/concat", "op": "ConcatV2", "input": ["PartitionedCall/PartitionedCall/model/tf_upsample/resize/ResizeNearestNeighbor", "PartitionedCall/PartitionedCall/model/tfc3_2/tf_conv_18/mul_1", "PartitionedCall/PartitionedCall/model/tf_concat/concat/axis"], "attr": {"N": {"i": "2"}, "T": {"type": "DT_FLOAT"}, "Tidx": {"type": "DT_INT32"}}}, {"name": "PartitionedCall/PartitionedCall/model/tfc3_4/tf_conv_34/conv2d_34/BiasAdd", "op": "_FusedConv2D", "input": ["PartitionedCall/PartitionedCall/model/tf_concat/concat", "PartitionedCall/PartitionedCall/model/tfc3_4/tf_conv_34/conv2d_34/Conv2D/ReadVariableOp", "PartitionedCall/PartitionedCall/model/tfc3_4/tf_conv_34/conv2d_34/BiasAdd/ReadVariableOp"], "device": "/device:CPU:0", "attr": {"epsilon": {"f": 0.0}, "explicit_paddings": {"list": {}}, "padding": {"s": "U0FNRQ=="}, "num_args": {"i": "1"}, "use_cudnn_on_gpu": {"b": true}, "dilations": {"list": {"i": ["1", "1", "1", "1"]}}, "T": {"type": "DT_FLOAT"}, "data_format": {"s": "TkhXQw=="}, "strides": {"list": {"i": ["1", "1", "1", "1"]}}, "fused_ops": {"list": {"s": ["Qmlhc0FkZA=="]}}}}, {"name": "PartitionedCall/PartitionedCall/model/tfc3_4/tf_conv_35/conv2d_35/BiasAdd", "op": "_FusedConv2D", "input": ["PartitionedCall/PartitionedCall/model/tf_concat/concat", "PartitionedCall/PartitionedCall/model/tfc3_4/tf_conv_35/conv2d_35/Conv2D/ReadVariableOp", "PartitionedCall/PartitionedCall/model/tfc3_4/tf_conv_35/conv2d_35/BiasAdd/ReadVariableOp"], "device": "/device:CPU:0", "attr": {"fused_ops": {"list": {"s": ["Qmlhc0FkZA=="]}}, "use_cudnn_on_gpu": {"b": true}, "T": {"type": "DT_FLOAT"}, "dilations": {"list": {"i": ["1", "1", "1", "1"]}}, "data_format": {"s": "TkhXQw=="}, "epsilon": {"f": 0.0}, "strides": {"list": {"i": ["1", "1", "1", "1"]}}, "explicit_paddings": {"list": {}}, "num_args": {"i": "1"}, "padding": {"s": "U0FNRQ=="}}}, {"name": "PartitionedCall/PartitionedCall/model/tfc3_4/tf_conv_34/Sigmoid", "op": "Sigmoid", "input": ["PartitionedCall/PartitionedCall/model/tfc3_4/tf_conv_34/conv2d_34/BiasAdd"], "attr": {"T": {"type": "DT_FLOAT"}}}, {"name": "PartitionedCall/PartitionedCall/model/tfc3_4/tf_conv_35/Sigmoid", "op": "Sigmoid", "input": ["PartitionedCall/PartitionedCall/model/tfc3_4/tf_conv_35/conv2d_35/BiasAdd"], "attr": {"T": {"type": "DT_FLOAT"}}}, {"name": "PartitionedCall/PartitionedCall/model/tfc3_4/tf_conv_34/mul_1", "op": "Mul", "input": ["PartitionedCall/PartitionedCall/model/tfc3_4/tf_conv_34/conv2d_34/BiasAdd", "PartitionedCall/PartitionedCall/model/tfc3_4/tf_conv_34/Sigmoid"], "attr": {"T": {"type": "DT_FLOAT"}}}, {"name": "PartitionedCall/PartitionedCall/model/tfc3_4/tf_conv_35/mul_1", "op": "Mul", "input": ["PartitionedCall/PartitionedCall/model/tfc3_4/tf_conv_35/conv2d_35/BiasAdd", "PartitionedCall/PartitionedCall/model/tfc3_4/tf_conv_35/Sigmoid"], "attr": {"T": {"type": "DT_FLOAT"}}}, {"name": "PartitionedCall/PartitionedCall/model/tfc3_4/sequential_9/tf_bottleneck_7/tf_conv_37/conv2d_37/BiasAdd", "op": "_FusedConv2D", "input": ["PartitionedCall/PartitionedCall/model/tfc3_4/tf_conv_34/mul_1", "PartitionedCall/PartitionedCall/model/tfc3_4/sequential_9/tf_bottleneck_7/tf_conv_37/conv2d_37/Conv2D/ReadVariableOp", "PartitionedCall/PartitionedCall/model/tfc3_4/sequential_9/tf_bottleneck_7/tf_conv_37/conv2d_37/BiasAdd/ReadVariableOp"], "device": "/device:CPU:0", "attr": {"explicit_paddings": {"list": {}}, "strides": {"list": {"i": ["1", "1", "1", "1"]}}, "num_args": {"i": "1"}, "use_cudnn_on_gpu": {"b": true}, "dilations": {"list": {"i": ["1", "1", "1", "1"]}}, "T": {"type": "DT_FLOAT"}, "data_format": {"s": "TkhXQw=="}, "padding": {"s": "U0FNRQ=="}, "epsilon": {"f": 0.0}, "fused_ops": {"list": {"s": ["Qmlhc0FkZA=="]}}}}, {"name": "PartitionedCall/PartitionedCall/model/tfc3_4/sequential_9/tf_bottleneck_7/tf_conv_37/Sigmoid", "op": "Sigmoid", "input": ["PartitionedCall/PartitionedCall/model/tfc3_4/sequential_9/tf_bottleneck_7/tf_conv_37/conv2d_37/BiasAdd"], "attr": {"T": {"type": "DT_FLOAT"}}}, {"name": "PartitionedCall/PartitionedCall/model/tfc3_4/sequential_9/tf_bottleneck_7/tf_conv_37/mul_1", "op": "Mul", "input": ["PartitionedCall/PartitionedCall/model/tfc3_4/sequential_9/tf_bottleneck_7/tf_conv_37/conv2d_37/BiasAdd", "PartitionedCall/PartitionedCall/model/tfc3_4/sequential_9/tf_bottleneck_7/tf_conv_37/Sigmoid"], "attr": {"T": {"type": "DT_FLOAT"}}}, {"name": "PartitionedCall/PartitionedCall/model/tfc3_4/sequential_9/tf_bottleneck_7/tf_conv_38/conv2d_38/BiasAdd", "op": "_FusedConv2D", "input": ["PartitionedCall/PartitionedCall/model/tfc3_4/sequential_9/tf_bottleneck_7/tf_conv_37/mul_1", "PartitionedCall/PartitionedCall/model/tfc3_4/sequential_9/tf_bottleneck_7/tf_conv_38/conv2d_38/Conv2D/ReadVariableOp", "PartitionedCall/PartitionedCall/model/tfc3_4/sequential_9/tf_bottleneck_7/tf_conv_38/conv2d_38/BiasAdd/ReadVariableOp"], "device": "/device:CPU:0", "attr": {"num_args": {"i": "1"}, "explicit_paddings": {"list": {}}, "epsilon": {"f": 0.0}, "use_cudnn_on_gpu": {"b": true}, "fused_ops": {"list": {"s": ["Qmlhc0FkZA=="]}}, "T": {"type": "DT_FLOAT"}, "strides": {"list": {"i": ["1", "1", "1", "1"]}}, "padding": {"s": "U0FNRQ=="}, "dilations": {"list": {"i": ["1", "1", "1", "1"]}}, "data_format": {"s": "TkhXQw=="}}}, {"name": "PartitionedCall/PartitionedCall/model/tfc3_4/sequential_9/tf_bottleneck_7/tf_conv_38/Sigmoid", "op": "Sigmoid", "input": ["PartitionedCall/PartitionedCall/model/tfc3_4/sequential_9/tf_bottleneck_7/tf_conv_38/conv2d_38/BiasAdd"], "attr": {"T": {"type": "DT_FLOAT"}}}, {"name": "PartitionedCall/PartitionedCall/model/tfc3_4/sequential_9/tf_bottleneck_7/tf_conv_38/mul_1", "op": "Mul", "input": ["PartitionedCall/PartitionedCall/model/tfc3_4/sequential_9/tf_bottleneck_7/tf_conv_38/conv2d_38/BiasAdd", "PartitionedCall/PartitionedCall/model/tfc3_4/sequential_9/tf_bottleneck_7/tf_conv_38/Sigmoid"], "attr": {"T": {"type": "DT_FLOAT"}}}, {"name": "PartitionedCall/PartitionedCall/model/tfc3_4/concat", "op": "ConcatV2", "input": ["PartitionedCall/PartitionedCall/model/tfc3_4/sequential_9/tf_bottleneck_7/tf_conv_38/mul_1", "PartitionedCall/PartitionedCall/model/tfc3_4/tf_conv_35/mul_1", "PartitionedCall/PartitionedCall/model/tfc3_4/concat/axis"], "attr": {"Tidx": {"type": "DT_INT32"}, "T": {"type": "DT_FLOAT"}, "N": {"i": "2"}}}, {"name": "PartitionedCall/PartitionedCall/model/tfc3_4/tf_conv_36/conv2d_36/BiasAdd", "op": "_FusedConv2D", "input": ["PartitionedCall/PartitionedCall/model/tfc3_4/concat", "PartitionedCall/PartitionedCall/model/tfc3_4/tf_conv_36/conv2d_36/Conv2D/ReadVariableOp", "PartitionedCall/PartitionedCall/model/tfc3_4/tf_conv_36/conv2d_36/BiasAdd/ReadVariableOp"], "device": "/device:CPU:0", "attr": {"epsilon": {"f": 0.0}, "use_cudnn_on_gpu": {"b": true}, "strides": {"list": {"i": ["1", "1", "1", "1"]}}, "dilations": {"list": {"i": ["1", "1", "1", "1"]}}, "data_format": {"s": "TkhXQw=="}, "fused_ops": {"list": {"s": ["Qmlhc0FkZA=="]}}, "T": {"type": "DT_FLOAT"}, "padding": {"s": "U0FNRQ=="}, "num_args": {"i": "1"}, "explicit_paddings": {"list": {}}}}, {"name": "PartitionedCall/PartitionedCall/model/tfc3_4/tf_conv_36/Sigmoid", "op": "Sigmoid", "input": ["PartitionedCall/PartitionedCall/model/tfc3_4/tf_conv_36/conv2d_36/BiasAdd"], "attr": {"T": {"type": "DT_FLOAT"}}}, {"name": "PartitionedCall/PartitionedCall/model/tfc3_4/tf_conv_36/mul_1", "op": "Mul", "input": ["PartitionedCall/PartitionedCall/model/tfc3_4/tf_conv_36/conv2d_36/BiasAdd", "PartitionedCall/PartitionedCall/model/tfc3_4/tf_conv_36/Sigmoid"], "attr": {"T": {"type": "DT_FLOAT"}}}, {"name": "PartitionedCall/PartitionedCall/model/tf_conv_39/conv2d_39/BiasAdd", "op": "_FusedConv2D", "input": ["PartitionedCall/PartitionedCall/model/tfc3_4/tf_conv_36/mul_1", "PartitionedCall/PartitionedCall/model/tf_conv_39/conv2d_39/Conv2D/ReadVariableOp", "PartitionedCall/PartitionedCall/model/tf_conv_39/conv2d_39/BiasAdd/ReadVariableOp"], "device": "/device:CPU:0", "attr": {"data_format": {"s": "TkhXQw=="}, "T": {"type": "DT_FLOAT"}, "strides": {"list": {"i": ["1", "1", "1", "1"]}}, "padding": {"s": "U0FNRQ=="}, "num_args": {"i": "1"}, "explicit_paddings": {"list": {}}, "epsilon": {"f": 0.0}, "fused_ops": {"list": {"s": ["Qmlhc0FkZA=="]}}, "use_cudnn_on_gpu": {"b": true}, "dilations": {"list": {"i": ["1", "1", "1", "1"]}}}}, {"name": "PartitionedCall/PartitionedCall/model/tf_conv_39/Sigmoid", "op": "Sigmoid", "input": ["PartitionedCall/PartitionedCall/model/tf_conv_39/conv2d_39/BiasAdd"], "attr": {"T": {"type": "DT_FLOAT"}}}, {"name": "PartitionedCall/PartitionedCall/model/tf_conv_39/mul_1", "op": "Mul", "input": ["PartitionedCall/PartitionedCall/model/tf_conv_39/conv2d_39/BiasAdd", "PartitionedCall/PartitionedCall/model/tf_conv_39/Sigmoid"], "attr": {"T": {"type": "DT_FLOAT"}}}, {"name": "PartitionedCall/PartitionedCall/model/tf_upsample_1/resize/ResizeNearestNeighbor", "op": "ResizeNearestNeighbor", "input": ["PartitionedCall/PartitionedCall/model/tf_conv_39/mul_1", "PartitionedCall/PartitionedCall/model/tf_upsample_1/resize/size"], "attr": {"T": {"type": "DT_FLOAT"}, "half_pixel_centers": {"b": true}, "align_corners": {"b": false}}}, {"name": "PartitionedCall/PartitionedCall/model/tf_concat_1/concat", "op": "ConcatV2", "input": ["PartitionedCall/PartitionedCall/model/tf_upsample_1/resize/ResizeNearestNeighbor", "PartitionedCall/PartitionedCall/model/tfc3_1/tf_conv_10/mul_1", "PartitionedCall/PartitionedCall/model/tf_concat_1/concat/axis"], "attr": {"Tidx": {"type": "DT_INT32"}, "T": {"type": "DT_FLOAT"}, "N": {"i": "2"}}}, {"name": "PartitionedCall/PartitionedCall/model/tfc3_5/tf_conv_40/conv2d_40/BiasAdd", "op": "_FusedConv2D", "input": ["PartitionedCall/PartitionedCall/model/tf_concat_1/concat", "PartitionedCall/PartitionedCall/model/tfc3_5/tf_conv_40/conv2d_40/Conv2D/ReadVariableOp", "PartitionedCall/PartitionedCall/model/tfc3_5/tf_conv_40/conv2d_40/BiasAdd/ReadVariableOp"], "device": "/device:CPU:0", "attr": {"epsilon": {"f": 0.0}, "fused_ops": {"list": {"s": ["Qmlhc0FkZA=="]}}, "num_args": {"i": "1"}, "explicit_paddings": {"list": {}}, "use_cudnn_on_gpu": {"b": true}, "dilations": {"list": {"i": ["1", "1", "1", "1"]}}, "data_format": {"s": "TkhXQw=="}, "padding": {"s": "U0FNRQ=="}, "T": {"type": "DT_FLOAT"}, "strides": {"list": {"i": ["1", "1", "1", "1"]}}}}, {"name": "PartitionedCall/PartitionedCall/model/tfc3_5/tf_conv_41/conv2d_41/BiasAdd", "op": "_FusedConv2D", "input": ["PartitionedCall/PartitionedCall/model/tf_concat_1/concat", "PartitionedCall/PartitionedCall/model/tfc3_5/tf_conv_41/conv2d_41/Conv2D/ReadVariableOp", "PartitionedCall/PartitionedCall/model/tfc3_5/tf_conv_41/conv2d_41/BiasAdd/ReadVariableOp"], "device": "/device:CPU:0", "attr": {"T": {"type": "DT_FLOAT"}, "data_format": {"s": "TkhXQw=="}, "epsilon": {"f": 0.0}, "padding": {"s": "U0FNRQ=="}, "strides": {"list": {"i": ["1", "1", "1", "1"]}}, "fused_ops": {"list": {"s": ["Qmlhc0FkZA=="]}}, "num_args": {"i": "1"}, "explicit_paddings": {"list": {}}, "use_cudnn_on_gpu": {"b": true}, "dilations": {"list": {"i": ["1", "1", "1", "1"]}}}}, {"name": "PartitionedCall/PartitionedCall/model/tfc3_5/tf_conv_40/Sigmoid", "op": "Sigmoid", "input": ["PartitionedCall/PartitionedCall/model/tfc3_5/tf_conv_40/conv2d_40/BiasAdd"], "attr": {"T": {"type": "DT_FLOAT"}}}, {"name": "PartitionedCall/PartitionedCall/model/tfc3_5/tf_conv_41/Sigmoid", "op": "Sigmoid", "input": ["PartitionedCall/PartitionedCall/model/tfc3_5/tf_conv_41/conv2d_41/BiasAdd"], "attr": {"T": {"type": "DT_FLOAT"}}}, {"name": "PartitionedCall/PartitionedCall/model/tfc3_5/tf_conv_40/mul_1", "op": "Mul", "input": ["PartitionedCall/PartitionedCall/model/tfc3_5/tf_conv_40/conv2d_40/BiasAdd", "PartitionedCall/PartitionedCall/model/tfc3_5/tf_conv_40/Sigmoid"], "attr": {"T": {"type": "DT_FLOAT"}}}, {"name": "PartitionedCall/PartitionedCall/model/tfc3_5/tf_conv_41/mul_1", "op": "Mul", "input": ["PartitionedCall/PartitionedCall/model/tfc3_5/tf_conv_41/conv2d_41/BiasAdd", "PartitionedCall/PartitionedCall/model/tfc3_5/tf_conv_41/Sigmoid"], "attr": {"T": {"type": "DT_FLOAT"}}}, {"name": "PartitionedCall/PartitionedCall/model/tfc3_5/sequential_10/tf_bottleneck_8/tf_conv_43/conv2d_43/BiasAdd", "op": "_FusedConv2D", "input": ["PartitionedCall/PartitionedCall/model/tfc3_5/tf_conv_40/mul_1", "PartitionedCall/PartitionedCall/model/tfc3_5/sequential_10/tf_bottleneck_8/tf_conv_43/conv2d_43/Conv2D/ReadVariableOp", "PartitionedCall/PartitionedCall/model/tfc3_5/sequential_10/tf_bottleneck_8/tf_conv_43/conv2d_43/BiasAdd/ReadVariableOp"], "device": "/device:CPU:0", "attr": {"padding": {"s": "U0FNRQ=="}, "dilations": {"list": {"i": ["1", "1", "1", "1"]}}, "data_format": {"s": "TkhXQw=="}, "explicit_paddings": {"list": {}}, "num_args": {"i": "1"}, "use_cudnn_on_gpu": {"b": true}, "fused_ops": {"list": {"s": ["Qmlhc0FkZA=="]}}, "strides": {"list": {"i": ["1", "1", "1", "1"]}}, "epsilon": {"f": 0.0}, "T": {"type": "DT_FLOAT"}}}, {"name": "PartitionedCall/PartitionedCall/model/tfc3_5/sequential_10/tf_bottleneck_8/tf_conv_43/Sigmoid", "op": "Sigmoid", "input": ["PartitionedCall/PartitionedCall/model/tfc3_5/sequential_10/tf_bottleneck_8/tf_conv_43/conv2d_43/BiasAdd"], "attr": {"T": {"type": "DT_FLOAT"}}}, {"name": "PartitionedCall/PartitionedCall/model/tfc3_5/sequential_10/tf_bottleneck_8/tf_conv_43/mul_1", "op": "Mul", "input": ["PartitionedCall/PartitionedCall/model/tfc3_5/sequential_10/tf_bottleneck_8/tf_conv_43/conv2d_43/BiasAdd", "PartitionedCall/PartitionedCall/model/tfc3_5/sequential_10/tf_bottleneck_8/tf_conv_43/Sigmoid"], "attr": {"T": {"type": "DT_FLOAT"}}}, {"name": "PartitionedCall/PartitionedCall/model/tfc3_5/sequential_10/tf_bottleneck_8/tf_conv_44/conv2d_44/BiasAdd", "op": "_FusedConv2D", "input": ["PartitionedCall/PartitionedCall/model/tfc3_5/sequential_10/tf_bottleneck_8/tf_conv_43/mul_1", "PartitionedCall/PartitionedCall/model/tfc3_5/sequential_10/tf_bottleneck_8/tf_conv_44/conv2d_44/Conv2D/ReadVariableOp", "PartitionedCall/PartitionedCall/model/tfc3_5/sequential_10/tf_bottleneck_8/tf_conv_44/conv2d_44/BiasAdd/ReadVariableOp"], "device": "/device:CPU:0", "attr": {"use_cudnn_on_gpu": {"b": true}, "dilations": {"list": {"i": ["1", "1", "1", "1"]}}, "epsilon": {"f": 0.0}, "T": {"type": "DT_FLOAT"}, "data_format": {"s": "TkhXQw=="}, "padding": {"s": "U0FNRQ=="}, "strides": {"list": {"i": ["1", "1", "1", "1"]}}, "explicit_paddings": {"list": {}}, "fused_ops": {"list": {"s": ["Qmlhc0FkZA=="]}}, "num_args": {"i": "1"}}}, {"name": "PartitionedCall/PartitionedCall/model/tfc3_5/sequential_10/tf_bottleneck_8/tf_conv_44/Sigmoid", "op": "Sigmoid", "input": ["PartitionedCall/PartitionedCall/model/tfc3_5/sequential_10/tf_bottleneck_8/tf_conv_44/conv2d_44/BiasAdd"], "attr": {"T": {"type": "DT_FLOAT"}}}, {"name": "PartitionedCall/PartitionedCall/model/tfc3_5/sequential_10/tf_bottleneck_8/tf_conv_44/mul_1", "op": "Mul", "input": ["PartitionedCall/PartitionedCall/model/tfc3_5/sequential_10/tf_bottleneck_8/tf_conv_44/conv2d_44/BiasAdd", "PartitionedCall/PartitionedCall/model/tfc3_5/sequential_10/tf_bottleneck_8/tf_conv_44/Sigmoid"], "attr": {"T": {"type": "DT_FLOAT"}}}, {"name": "PartitionedCall/PartitionedCall/model/tfc3_5/concat", "op": "ConcatV2", "input": ["PartitionedCall/PartitionedCall/model/tfc3_5/sequential_10/tf_bottleneck_8/tf_conv_44/mul_1", "PartitionedCall/PartitionedCall/model/tfc3_5/tf_conv_41/mul_1", "PartitionedCall/PartitionedCall/model/tfc3_5/concat/axis"], "attr": {"Tidx": {"type": "DT_INT32"}, "T": {"type": "DT_FLOAT"}, "N": {"i": "2"}}}, {"name": "PartitionedCall/PartitionedCall/model/tfc3_5/tf_conv_42/conv2d_42/BiasAdd", "op": "_FusedConv2D", "input": ["PartitionedCall/PartitionedCall/model/tfc3_5/concat", "PartitionedCall/PartitionedCall/model/tfc3_5/tf_conv_42/conv2d_42/Conv2D/ReadVariableOp", "PartitionedCall/PartitionedCall/model/tfc3_5/tf_conv_42/conv2d_42/BiasAdd/ReadVariableOp"], "device": "/device:CPU:0", "attr": {"explicit_paddings": {"list": {}}, "num_args": {"i": "1"}, "use_cudnn_on_gpu": {"b": true}, "epsilon": {"f": 0.0}, "T": {"type": "DT_FLOAT"}, "padding": {"s": "U0FNRQ=="}, "dilations": {"list": {"i": ["1", "1", "1", "1"]}}, "data_format": {"s": "TkhXQw=="}, "strides": {"list": {"i": ["1", "1", "1", "1"]}}, "fused_ops": {"list": {"s": ["Qmlhc0FkZA=="]}}}}, {"name": "PartitionedCall/PartitionedCall/model/tfc3_5/tf_conv_42/Sigmoid", "op": "Sigmoid", "input": ["PartitionedCall/PartitionedCall/model/tfc3_5/tf_conv_42/conv2d_42/BiasAdd"], "attr": {"T": {"type": "DT_FLOAT"}}}, {"name": "PartitionedCall/PartitionedCall/model/tfc3_5/tf_conv_42/mul_1", "op": "Mul", "input": ["PartitionedCall/PartitionedCall/model/tfc3_5/tf_conv_42/conv2d_42/BiasAdd", "PartitionedCall/PartitionedCall/model/tfc3_5/tf_conv_42/Sigmoid"], "attr": {"T": {"type": "DT_FLOAT"}}}, {"name": "PartitionedCall/PartitionedCall/model/tf_detect/tf_conv2d/conv2d_57/BiasAdd", "op": "_FusedConv2D", "input": ["PartitionedCall/PartitionedCall/model/tfc3_5/tf_conv_42/mul_1", "PartitionedCall/PartitionedCall/model/tf_detect/tf_conv2d/conv2d_57/Conv2D/ReadVariableOp", "PartitionedCall/PartitionedCall/model/tf_detect/tf_conv2d/conv2d_57/BiasAdd/ReadVariableOp"], "device": "/device:CPU:0", "attr": {"epsilon": {"f": 0.0}, "data_format": {"s": "TkhXQw=="}, "fused_ops": {"list": {"s": ["Qmlhc0FkZA=="]}}, "explicit_paddings": {"list": {}}, "T": {"type": "DT_FLOAT"}, "num_args": {"i": "1"}, "use_cudnn_on_gpu": {"b": true}, "padding": {"s": "VkFMSUQ="}, "dilations": {"list": {"i": ["1", "1", "1", "1"]}}, "strides": {"list": {"i": ["1", "1", "1", "1"]}}}}, {"name": "PartitionedCall/PartitionedCall/model/tf_conv_45/sequential_11/tf_pad_5/Pad", "op": "Pad", "input": ["PartitionedCall/PartitionedCall/model/tfc3_5/tf_conv_42/mul_1", "PartitionedCall/PartitionedCall/model/tf_conv_45/sequential_11/tf_pad_5/Pad/paddings"], "attr": {"Tpaddings": {"type": "DT_INT32"}, "T": {"type": "DT_FLOAT"}}}, {"name": "PartitionedCall/PartitionedCall/model/tf_detect/Reshape", "op": "Reshape", "input": ["PartitionedCall/PartitionedCall/model/tf_detect/tf_conv2d/conv2d_57/BiasAdd", "PartitionedCall/PartitionedCall/model/tf_detect/Reshape/shape_1"], "attr": {"Tshape": {"type": "DT_INT32"}, "T": {"type": "DT_FLOAT"}}}, {"name": "PartitionedCall/PartitionedCall/model/tf_conv_45/sequential_11/conv2d_45/BiasAdd", "op": "_FusedConv2D", "input": ["PartitionedCall/PartitionedCall/model/tf_conv_45/sequential_11/tf_pad_5/Pad", "PartitionedCall/PartitionedCall/model/tf_conv_45/sequential_11/conv2d_45/Conv2D/ReadVariableOp", "PartitionedCall/PartitionedCall/model/tf_conv_45/sequential_11/conv2d_45/BiasAdd/ReadVariableOp"], "device": "/device:CPU:0", "attr": {"explicit_paddings": {"list": {}}, "fused_ops": {"list": {"s": ["Qmlhc0FkZA=="]}}, "padding": {"s": "VkFMSUQ="}, "num_args": {"i": "1"}, "strides": {"list": {"i": ["1", "2", "2", "1"]}}, "use_cudnn_on_gpu": {"b": true}, "dilations": {"list": {"i": ["1", "1", "1", "1"]}}, "epsilon": {"f": 0.0}, "data_format": {"s": "TkhXQw=="}, "T": {"type": "DT_FLOAT"}}}, {"name": "PartitionedCall/PartitionedCall/model/tf_detect/Sigmoid", "op": "Sigmoid", "input": ["PartitionedCall/PartitionedCall/model/tf_detect/Reshape"], "attr": {"T": {"type": "DT_FLOAT"}}}, {"name": "PartitionedCall/PartitionedCall/model/tf_conv_45/Sigmoid", "op": "Sigmoid", "input": ["PartitionedCall/PartitionedCall/model/tf_conv_45/sequential_11/conv2d_45/BiasAdd"], "attr": {"T": {"type": "DT_FLOAT"}}}, {"name": "PartitionedCall/PartitionedCall/model/tf_detect/strided_slice_3", "op": "StridedSlice", "input": ["PartitionedCall/PartitionedCall/model/tf_detect/Sigmoid", "PartitionedCall/PartitionedCall/model/tf_detect/strided_slice_3/stack", "PartitionedCall/PartitionedCall/model/tf_detect/strided_slice_3/stack_1", "PartitionedCall/PartitionedCall/model/tf_detect/strided_slice_3/stack_2"], "attr": {"T": {"type": "DT_FLOAT"}, "begin_mask": {"i": "0"}, "ellipsis_mask": {"i": "1"}, "shrink_axis_mask": {"i": "0"}, "Index": {"type": "DT_INT32"}, "end_mask": {"i": "0"}, "new_axis_mask": {"i": "0"}}}, {"name": "PartitionedCall/PartitionedCall/model/tf_detect/strided_slice_5", "op": "StridedSlice", "input": ["PartitionedCall/PartitionedCall/model/tf_detect/Sigmoid", "PartitionedCall/PartitionedCall/model/tf_detect/strided_slice_5/stack", "PartitionedCall/PartitionedCall/model/tf_detect/strided_slice_5/stack_1", "PartitionedCall/PartitionedCall/model/tf_detect/strided_slice_5/stack_2"], "attr": {"T": {"type": "DT_FLOAT"}, "Index": {"type": "DT_INT32"}, "begin_mask": {"i": "0"}, "end_mask": {"i": "0"}, "new_axis_mask": {"i": "0"}, "ellipsis_mask": {"i": "1"}, "shrink_axis_mask": {"i": "0"}}}, {"name": "PartitionedCall/PartitionedCall/model/tf_detect/strided_slice_6", "op": "StridedSlice", "input": ["PartitionedCall/PartitionedCall/model/tf_detect/Sigmoid", "PartitionedCall/PartitionedCall/model/tf_detect/strided_slice_6/stack", "PartitionedCall/PartitionedCall/model/tf_detect/strided_slice_6/stack_1", "PartitionedCall/PartitionedCall/model/tf_detect/strided_slice_6/stack_2"], "attr": {"new_axis_mask": {"i": "0"}, "begin_mask": {"i": "0"}, "T": {"type": "DT_FLOAT"}, "ellipsis_mask": {"i": "1"}, "end_mask": {"i": "2"}, "shrink_axis_mask": {"i": "0"}, "Index": {"type": "DT_INT32"}}}, {"name": "PartitionedCall/PartitionedCall/model/tf_conv_45/mul_1", "op": "Mul", "input": ["PartitionedCall/PartitionedCall/model/tf_conv_45/sequential_11/conv2d_45/BiasAdd", "PartitionedCall/PartitionedCall/model/tf_conv_45/Sigmoid"], "attr": {"T": {"type": "DT_FLOAT"}}}, {"name": "PartitionedCall/PartitionedCall/model/tf_detect/mul_2", "op": "Mul", "input": ["PartitionedCall/PartitionedCall/model/tf_detect/strided_slice_3", "PartitionedCall/PartitionedCall/model/tf_detect/mul_2/y"], "attr": {"T": {"type": "DT_FLOAT"}}}, {"name": "PartitionedCall/PartitionedCall/model/tf_detect/pow", "op": "Square", "input": ["PartitionedCall/PartitionedCall/model/tf_detect/strided_slice_5"], "attr": {"T": {"type": "DT_FLOAT"}}}, {"name": "PartitionedCall/PartitionedCall/model/tf_concat_2/concat", "op": "ConcatV2", "input": ["PartitionedCall/PartitionedCall/model/tf_conv_45/mul_1", "PartitionedCall/PartitionedCall/model/tf_conv_39/mul_1", "PartitionedCall/PartitionedCall/model/tf_concat_2/concat/axis"], "attr": {"T": {"type": "DT_FLOAT"}, "Tidx": {"type": "DT_INT32"}, "N": {"i": "2"}}}, {"name": "PartitionedCall/PartitionedCall/model/tf_detect/add", "op": "AddV2", "input": ["PartitionedCall/PartitionedCall/model/tf_detect/mul_2", "PartitionedCall/PartitionedCall/model/tf_detect/sub"], "attr": {"T": {"type": "DT_FLOAT"}}}, {"name": "PartitionedCall/PartitionedCall/model/tf_detect/truediv_1", "op": "Mul", "input": ["PartitionedCall/PartitionedCall/model/tf_detect/pow", "PartitionedCall/PartitionedCall/model/tf_detect/mul_4"], "attr": {"T": {"type": "DT_FLOAT"}}}, {"name": "PartitionedCall/PartitionedCall/model/tfc3_6/tf_conv_46/conv2d_46/BiasAdd", "op": "_FusedConv2D", "input": ["PartitionedCall/PartitionedCall/model/tf_concat_2/concat", "PartitionedCall/PartitionedCall/model/tfc3_6/tf_conv_46/conv2d_46/Conv2D/ReadVariableOp", "PartitionedCall/PartitionedCall/model/tfc3_6/tf_conv_46/conv2d_46/BiasAdd/ReadVariableOp"], "device": "/device:CPU:0", "attr": {"explicit_paddings": {"list": {}}, "num_args": {"i": "1"}, "use_cudnn_on_gpu": {"b": true}, "fused_ops": {"list": {"s": ["Qmlhc0FkZA=="]}}, "dilations": {"list": {"i": ["1", "1", "1", "1"]}}, "T": {"type": "DT_FLOAT"}, "strides": {"list": {"i": ["1", "1", "1", "1"]}}, "padding": {"s": "U0FNRQ=="}, "epsilon": {"f": 0.0}, "data_format": {"s": "TkhXQw=="}}}, {"name": "PartitionedCall/PartitionedCall/model/tfc3_6/tf_conv_47/conv2d_47/BiasAdd", "op": "_FusedConv2D", "input": ["PartitionedCall/PartitionedCall/model/tf_concat_2/concat", "PartitionedCall/PartitionedCall/model/tfc3_6/tf_conv_47/conv2d_47/Conv2D/ReadVariableOp", "PartitionedCall/PartitionedCall/model/tfc3_6/tf_conv_47/conv2d_47/BiasAdd/ReadVariableOp"], "device": "/device:CPU:0", "attr": {"explicit_paddings": {"list": {}}, "num_args": {"i": "1"}, "fused_ops": {"list": {"s": ["Qmlhc0FkZA=="]}}, "epsilon": {"f": 0.0}, "use_cudnn_on_gpu": {"b": true}, "dilations": {"list": {"i": ["1", "1", "1", "1"]}}, "data_format": {"s": "TkhXQw=="}, "strides": {"list": {"i": ["1", "1", "1", "1"]}}, "T": {"type": "DT_FLOAT"}, "padding": {"s": "U0FNRQ=="}}}, {"name": "PartitionedCall/PartitionedCall/model/tf_detect/truediv", "op": "Mul", "input": ["PartitionedCall/PartitionedCall/model/tf_detect/add", "PartitionedCall/PartitionedCall/model/tf_detect/mul_3"], "attr": {"T": {"type": "DT_FLOAT"}}}, {"name": "PartitionedCall/PartitionedCall/model/tfc3_6/tf_conv_46/Sigmoid", "op": "Sigmoid", "input": ["PartitionedCall/PartitionedCall/model/tfc3_6/tf_conv_46/conv2d_46/BiasAdd"], "attr": {"T": {"type": "DT_FLOAT"}}}, {"name": "PartitionedCall/PartitionedCall/model/tfc3_6/tf_conv_47/Sigmoid", "op": "Sigmoid", "input": ["PartitionedCall/PartitionedCall/model/tfc3_6/tf_conv_47/conv2d_47/BiasAdd"], "attr": {"T": {"type": "DT_FLOAT"}}}, {"name": "PartitionedCall/PartitionedCall/model/tf_detect/concat", "op": "ConcatV2", "input": ["PartitionedCall/PartitionedCall/model/tf_detect/truediv", "PartitionedCall/PartitionedCall/model/tf_detect/truediv_1", "PartitionedCall/PartitionedCall/model/tf_detect/strided_slice_6", "PartitionedCall/PartitionedCall/model/tf_detect/concat/axis"], "attr": {"T": {"type": "DT_FLOAT"}, "N": {"i": "3"}, "Tidx": {"type": "DT_INT32"}}}, {"name": "PartitionedCall/PartitionedCall/model/tfc3_6/tf_conv_46/mul_1", "op": "Mul", "input": ["PartitionedCall/PartitionedCall/model/tfc3_6/tf_conv_46/conv2d_46/BiasAdd", "PartitionedCall/PartitionedCall/model/tfc3_6/tf_conv_46/Sigmoid"], "attr": {"T": {"type": "DT_FLOAT"}}}, {"name": "PartitionedCall/PartitionedCall/model/tfc3_6/tf_conv_47/mul_1", "op": "Mul", "input": ["PartitionedCall/PartitionedCall/model/tfc3_6/tf_conv_47/conv2d_47/BiasAdd", "PartitionedCall/PartitionedCall/model/tfc3_6/tf_conv_47/Sigmoid"], "attr": {"T": {"type": "DT_FLOAT"}}}, {"name": "PartitionedCall/PartitionedCall/model/tf_detect/Reshape_1", "op": "Reshape", "input": ["PartitionedCall/PartitionedCall/model/tf_detect/concat", "PartitionedCall/PartitionedCall/model/tf_detect/Reshape_1/shape_1"], "attr": {"Tshape": {"type": "DT_INT32"}, "T": {"type": "DT_FLOAT"}}}, {"name": "PartitionedCall/PartitionedCall/model/tfc3_6/sequential_12/tf_bottleneck_9/tf_conv_49/conv2d_49/BiasAdd", "op": "_FusedConv2D", "input": ["PartitionedCall/PartitionedCall/model/tfc3_6/tf_conv_46/mul_1", "PartitionedCall/PartitionedCall/model/tfc3_6/sequential_12/tf_bottleneck_9/tf_conv_49/conv2d_49/Conv2D/ReadVariableOp", "PartitionedCall/PartitionedCall/model/tfc3_6/sequential_12/tf_bottleneck_9/tf_conv_49/conv2d_49/BiasAdd/ReadVariableOp"], "device": "/device:CPU:0", "attr": {"use_cudnn_on_gpu": {"b": true}, "dilations": {"list": {"i": ["1", "1", "1", "1"]}}, "padding": {"s": "U0FNRQ=="}, "data_format": {"s": "TkhXQw=="}, "strides": {"list": {"i": ["1", "1", "1", "1"]}}, "epsilon": {"f": 0.0}, "fused_ops": {"list": {"s": ["Qmlhc0FkZA=="]}}, "T": {"type": "DT_FLOAT"}, "num_args": {"i": "1"}, "explicit_paddings": {"list": {}}}}, {"name": "PartitionedCall/PartitionedCall/model/tfc3_6/sequential_12/tf_bottleneck_9/tf_conv_49/Sigmoid", "op": "Sigmoid", "input": ["PartitionedCall/PartitionedCall/model/tfc3_6/sequential_12/tf_bottleneck_9/tf_conv_49/conv2d_49/BiasAdd"], "attr": {"T": {"type": "DT_FLOAT"}}}, {"name": "PartitionedCall/PartitionedCall/model/tfc3_6/sequential_12/tf_bottleneck_9/tf_conv_49/mul_1", "op": "Mul", "input": ["PartitionedCall/PartitionedCall/model/tfc3_6/sequential_12/tf_bottleneck_9/tf_conv_49/conv2d_49/BiasAdd", "PartitionedCall/PartitionedCall/model/tfc3_6/sequential_12/tf_bottleneck_9/tf_conv_49/Sigmoid"], "attr": {"T": {"type": "DT_FLOAT"}}}, {"name": "PartitionedCall/PartitionedCall/model/tfc3_6/sequential_12/tf_bottleneck_9/tf_conv_50/conv2d_50/BiasAdd", "op": "_FusedConv2D", "input": ["PartitionedCall/PartitionedCall/model/tfc3_6/sequential_12/tf_bottleneck_9/tf_conv_49/mul_1", "PartitionedCall/PartitionedCall/model/tfc3_6/sequential_12/tf_bottleneck_9/tf_conv_50/conv2d_50/Conv2D/ReadVariableOp", "PartitionedCall/PartitionedCall/model/tfc3_6/sequential_12/tf_bottleneck_9/tf_conv_50/conv2d_50/BiasAdd/ReadVariableOp"], "device": "/device:CPU:0", "attr": {"use_cudnn_on_gpu": {"b": true}, "dilations": {"list": {"i": ["1", "1", "1", "1"]}}, "strides": {"list": {"i": ["1", "1", "1", "1"]}}, "T": {"type": "DT_FLOAT"}, "data_format": {"s": "TkhXQw=="}, "fused_ops": {"list": {"s": ["Qmlhc0FkZA=="]}}, "epsilon": {"f": 0.0}, "padding": {"s": "U0FNRQ=="}, "explicit_paddings": {"list": {}}, "num_args": {"i": "1"}}}, {"name": "PartitionedCall/PartitionedCall/model/tfc3_6/sequential_12/tf_bottleneck_9/tf_conv_50/Sigmoid", "op": "Sigmoid", "input": ["PartitionedCall/PartitionedCall/model/tfc3_6/sequential_12/tf_bottleneck_9/tf_conv_50/conv2d_50/BiasAdd"], "attr": {"T": {"type": "DT_FLOAT"}}}, {"name": "PartitionedCall/PartitionedCall/model/tfc3_6/sequential_12/tf_bottleneck_9/tf_conv_50/mul_1", "op": "Mul", "input": ["PartitionedCall/PartitionedCall/model/tfc3_6/sequential_12/tf_bottleneck_9/tf_conv_50/conv2d_50/BiasAdd", "PartitionedCall/PartitionedCall/model/tfc3_6/sequential_12/tf_bottleneck_9/tf_conv_50/Sigmoid"], "attr": {"T": {"type": "DT_FLOAT"}}}, {"name": "PartitionedCall/PartitionedCall/model/tfc3_6/concat", "op": "ConcatV2", "input": ["PartitionedCall/PartitionedCall/model/tfc3_6/sequential_12/tf_bottleneck_9/tf_conv_50/mul_1", "PartitionedCall/PartitionedCall/model/tfc3_6/tf_conv_47/mul_1", "PartitionedCall/PartitionedCall/model/tfc3_6/concat/axis"], "attr": {"N": {"i": "2"}, "T": {"type": "DT_FLOAT"}, "Tidx": {"type": "DT_INT32"}}}, {"name": "PartitionedCall/PartitionedCall/model/tfc3_6/tf_conv_48/conv2d_48/BiasAdd", "op": "_FusedConv2D", "input": ["PartitionedCall/PartitionedCall/model/tfc3_6/concat", "PartitionedCall/PartitionedCall/model/tfc3_6/tf_conv_48/conv2d_48/Conv2D/ReadVariableOp", "PartitionedCall/PartitionedCall/model/tfc3_6/tf_conv_48/conv2d_48/BiasAdd/ReadVariableOp"], "device": "/device:CPU:0", "attr": {"fused_ops": {"list": {"s": ["Qmlhc0FkZA=="]}}, "epsilon": {"f": 0.0}, "explicit_paddings": {"list": {}}, "padding": {"s": "U0FNRQ=="}, "num_args": {"i": "1"}, "use_cudnn_on_gpu": {"b": true}, "dilations": {"list": {"i": ["1", "1", "1", "1"]}}, "strides": {"list": {"i": ["1", "1", "1", "1"]}}, "T": {"type": "DT_FLOAT"}, "data_format": {"s": "TkhXQw=="}}}, {"name": "PartitionedCall/PartitionedCall/model/tfc3_6/tf_conv_48/Sigmoid", "op": "Sigmoid", "input": ["PartitionedCall/PartitionedCall/model/tfc3_6/tf_conv_48/conv2d_48/BiasAdd"], "attr": {"T": {"type": "DT_FLOAT"}}}, {"name": "PartitionedCall/PartitionedCall/model/tfc3_6/tf_conv_48/mul_1", "op": "Mul", "input": ["PartitionedCall/PartitionedCall/model/tfc3_6/tf_conv_48/conv2d_48/BiasAdd", "PartitionedCall/PartitionedCall/model/tfc3_6/tf_conv_48/Sigmoid"], "attr": {"T": {"type": "DT_FLOAT"}}}, {"name": "PartitionedCall/PartitionedCall/model/tf_detect/tf_conv2d_1/conv2d_58/BiasAdd", "op": "_FusedConv2D", "input": ["PartitionedCall/PartitionedCall/model/tfc3_6/tf_conv_48/mul_1", "PartitionedCall/PartitionedCall/model/tf_detect/tf_conv2d_1/conv2d_58/Conv2D/ReadVariableOp", "PartitionedCall/PartitionedCall/model/tf_detect/tf_conv2d_1/conv2d_58/BiasAdd/ReadVariableOp"], "device": "/device:CPU:0", "attr": {"num_args": {"i": "1"}, "explicit_paddings": {"list": {}}, "use_cudnn_on_gpu": {"b": true}, "padding": {"s": "VkFMSUQ="}, "dilations": {"list": {"i": ["1", "1", "1", "1"]}}, "data_format": {"s": "TkhXQw=="}, "fused_ops": {"list": {"s": ["Qmlhc0FkZA=="]}}, "epsilon": {"f": 0.0}, "strides": {"list": {"i": ["1", "1", "1", "1"]}}, "T": {"type": "DT_FLOAT"}}}, {"name": "PartitionedCall/PartitionedCall/model/tf_conv_51/sequential_13/tf_pad_6/Pad", "op": "Pad", "input": ["PartitionedCall/PartitionedCall/model/tfc3_6/tf_conv_48/mul_1", "PartitionedCall/PartitionedCall/model/tf_conv_51/sequential_13/tf_pad_6/Pad/paddings"], "attr": {"Tpaddings": {"type": "DT_INT32"}, "T": {"type": "DT_FLOAT"}}}, {"name": "PartitionedCall/PartitionedCall/model/tf_detect/Reshape_2", "op": "Reshape", "input": ["PartitionedCall/PartitionedCall/model/tf_detect/tf_conv2d_1/conv2d_58/BiasAdd", "PartitionedCall/PartitionedCall/model/tf_detect/Reshape_2/shape_1"], "attr": {"Tshape": {"type": "DT_INT32"}, "T": {"type": "DT_FLOAT"}}}, {"name": "PartitionedCall/PartitionedCall/model/tf_conv_51/sequential_13/conv2d_51/BiasAdd", "op": "_FusedConv2D", "input": ["PartitionedCall/PartitionedCall/model/tf_conv_51/sequential_13/tf_pad_6/Pad", "PartitionedCall/PartitionedCall/model/tf_conv_51/sequential_13/conv2d_51/Conv2D/ReadVariableOp", "PartitionedCall/PartitionedCall/model/tf_conv_51/sequential_13/conv2d_51/BiasAdd/ReadVariableOp"], "device": "/device:CPU:0", "attr": {"epsilon": {"f": 0.0}, "explicit_paddings": {"list": {}}, "num_args": {"i": "1"}, "use_cudnn_on_gpu": {"b": true}, "fused_ops": {"list": {"s": ["Qmlhc0FkZA=="]}}, "T": {"type": "DT_FLOAT"}, "dilations": {"list": {"i": ["1", "1", "1", "1"]}}, "data_format": {"s": "TkhXQw=="}, "strides": {"list": {"i": ["1", "2", "2", "1"]}}, "padding": {"s": "VkFMSUQ="}}}, {"name": "PartitionedCall/PartitionedCall/model/tf_detect/Sigmoid_1", "op": "Sigmoid", "input": ["PartitionedCall/PartitionedCall/model/tf_detect/Reshape_2"], "attr": {"T": {"type": "DT_FLOAT"}}}, {"name": "PartitionedCall/PartitionedCall/model/tf_conv_51/Sigmoid", "op": "Sigmoid", "input": ["PartitionedCall/PartitionedCall/model/tf_conv_51/sequential_13/conv2d_51/BiasAdd"], "attr": {"T": {"type": "DT_FLOAT"}}}, {"name": "PartitionedCall/PartitionedCall/model/tf_detect/strided_slice_10", "op": "StridedSlice", "input": ["PartitionedCall/PartitionedCall/model/tf_detect/Sigmoid_1", "PartitionedCall/PartitionedCall/model/tf_detect/strided_slice_10/stack", "PartitionedCall/PartitionedCall/model/tf_detect/strided_slice_10/stack_1", "PartitionedCall/PartitionedCall/model/tf_detect/strided_slice_10/stack_2"], "attr": {"ellipsis_mask": {"i": "1"}, "new_axis_mask": {"i": "0"}, "T": {"type": "DT_FLOAT"}, "shrink_axis_mask": {"i": "0"}, "Index": {"type": "DT_INT32"}, "begin_mask": {"i": "0"}, "end_mask": {"i": "0"}}}, {"name": "PartitionedCall/PartitionedCall/model/tf_detect/strided_slice_12", "op": "StridedSlice", "input": ["PartitionedCall/PartitionedCall/model/tf_detect/Sigmoid_1", "PartitionedCall/PartitionedCall/model/tf_detect/strided_slice_12/stack", "PartitionedCall/PartitionedCall/model/tf_detect/strided_slice_12/stack_1", "PartitionedCall/PartitionedCall/model/tf_detect/strided_slice_12/stack_2"], "attr": {"T": {"type": "DT_FLOAT"}, "shrink_axis_mask": {"i": "0"}, "ellipsis_mask": {"i": "1"}, "begin_mask": {"i": "0"}, "Index": {"type": "DT_INT32"}, "end_mask": {"i": "0"}, "new_axis_mask": {"i": "0"}}}, {"name": "PartitionedCall/PartitionedCall/model/tf_detect/strided_slice_13", "op": "StridedSlice", "input": ["PartitionedCall/PartitionedCall/model/tf_detect/Sigmoid_1", "PartitionedCall/PartitionedCall/model/tf_detect/strided_slice_13/stack", "PartitionedCall/PartitionedCall/model/tf_detect/strided_slice_13/stack_1", "PartitionedCall/PartitionedCall/model/tf_detect/strided_slice_13/stack_2"], "attr": {"new_axis_mask": {"i": "0"}, "ellipsis_mask": {"i": "1"}, "T": {"type": "DT_FLOAT"}, "begin_mask": {"i": "0"}, "end_mask": {"i": "2"}, "Index": {"type": "DT_INT32"}, "shrink_axis_mask": {"i": "0"}}}, {"name": "PartitionedCall/PartitionedCall/model/tf_conv_51/mul_1", "op": "Mul", "input": ["PartitionedCall/PartitionedCall/model/tf_conv_51/sequential_13/conv2d_51/BiasAdd", "PartitionedCall/PartitionedCall/model/tf_conv_51/Sigmoid"], "attr": {"T": {"type": "DT_FLOAT"}}}, {"name": "PartitionedCall/PartitionedCall/model/tf_detect/mul_9", "op": "Mul", "input": ["PartitionedCall/PartitionedCall/model/tf_detect/strided_slice_10", "PartitionedCall/PartitionedCall/model/tf_detect/mul_9/y"], "attr": {"T": {"type": "DT_FLOAT"}}}, {"name": "PartitionedCall/PartitionedCall/model/tf_detect/pow_1", "op": "Square", "input": ["PartitionedCall/PartitionedCall/model/tf_detect/strided_slice_12"], "attr": {"T": {"type": "DT_FLOAT"}}}, {"name": "PartitionedCall/PartitionedCall/model/tf_concat_3/concat", "op": "ConcatV2", "input": ["PartitionedCall/PartitionedCall/model/tf_conv_51/mul_1", "PartitionedCall/PartitionedCall/model/tf_conv_33/mul_1", "PartitionedCall/PartitionedCall/model/tf_concat_3/concat/axis"], "attr": {"Tidx": {"type": "DT_INT32"}, "N": {"i": "2"}, "T": {"type": "DT_FLOAT"}}}, {"name": "PartitionedCall/PartitionedCall/model/tf_detect/add_1", "op": "AddV2", "input": ["PartitionedCall/PartitionedCall/model/tf_detect/mul_9", "PartitionedCall/PartitionedCall/model/tf_detect/sub_1"], "attr": {"T": {"type": "DT_FLOAT"}}}, {"name": "PartitionedCall/PartitionedCall/model/tf_detect/truediv_3", "op": "Mul", "input": ["PartitionedCall/PartitionedCall/model/tf_detect/pow_1", "PartitionedCall/PartitionedCall/model/tf_detect/mul_11"], "attr": {"T": {"type": "DT_FLOAT"}}}, {"name": "PartitionedCall/PartitionedCall/model/tfc3_7/tf_conv_52/conv2d_52/BiasAdd", "op": "_FusedConv2D", "input": ["PartitionedCall/PartitionedCall/model/tf_concat_3/concat", "PartitionedCall/PartitionedCall/model/tfc3_7/tf_conv_52/conv2d_52/Conv2D/ReadVariableOp", "PartitionedCall/PartitionedCall/model/tfc3_7/tf_conv_52/conv2d_52/BiasAdd/ReadVariableOp"], "device": "/device:CPU:0", "attr": {"data_format": {"s": "TkhXQw=="}, "explicit_paddings": {"list": {}}, "fused_ops": {"list": {"s": ["Qmlhc0FkZA=="]}}, "T": {"type": "DT_FLOAT"}, "epsilon": {"f": 0.0}, "num_args": {"i": "1"}, "strides": {"list": {"i": ["1", "1", "1", "1"]}}, "dilations": {"list": {"i": ["1", "1", "1", "1"]}}, "padding": {"s": "U0FNRQ=="}, "use_cudnn_on_gpu": {"b": true}}}, {"name": "PartitionedCall/PartitionedCall/model/tfc3_7/tf_conv_53/conv2d_53/BiasAdd", "op": "_FusedConv2D", "input": ["PartitionedCall/PartitionedCall/model/tf_concat_3/concat", "PartitionedCall/PartitionedCall/model/tfc3_7/tf_conv_53/conv2d_53/Conv2D/ReadVariableOp", "PartitionedCall/PartitionedCall/model/tfc3_7/tf_conv_53/conv2d_53/BiasAdd/ReadVariableOp"], "device": "/device:CPU:0", "attr": {"padding": {"s": "U0FNRQ=="}, "fused_ops": {"list": {"s": ["Qmlhc0FkZA=="]}}, "num_args": {"i": "1"}, "epsilon": {"f": 0.0}, "dilations": {"list": {"i": ["1", "1", "1", "1"]}}, "use_cudnn_on_gpu": {"b": true}, "T": {"type": "DT_FLOAT"}, "data_format": {"s": "TkhXQw=="}, "strides": {"list": {"i": ["1", "1", "1", "1"]}}, "explicit_paddings": {"list": {}}}}, {"name": "PartitionedCall/PartitionedCall/model/tf_detect/truediv_2", "op": "Mul", "input": ["PartitionedCall/PartitionedCall/model/tf_detect/add_1", "PartitionedCall/PartitionedCall/model/tf_detect/mul_10"], "attr": {"T": {"type": "DT_FLOAT"}}}, {"name": "PartitionedCall/PartitionedCall/model/tfc3_7/tf_conv_52/Sigmoid", "op": "Sigmoid", "input": ["PartitionedCall/PartitionedCall/model/tfc3_7/tf_conv_52/conv2d_52/BiasAdd"], "attr": {"T": {"type": "DT_FLOAT"}}}, {"name": "PartitionedCall/PartitionedCall/model/tfc3_7/tf_conv_53/Sigmoid", "op": "Sigmoid", "input": ["PartitionedCall/PartitionedCall/model/tfc3_7/tf_conv_53/conv2d_53/BiasAdd"], "attr": {"T": {"type": "DT_FLOAT"}}}, {"name": "PartitionedCall/PartitionedCall/model/tf_detect/concat_1", "op": "ConcatV2", "input": ["PartitionedCall/PartitionedCall/model/tf_detect/truediv_2", "PartitionedCall/PartitionedCall/model/tf_detect/truediv_3", "PartitionedCall/PartitionedCall/model/tf_detect/strided_slice_13", "PartitionedCall/PartitionedCall/model/tf_detect/concat_1/axis"], "attr": {"Tidx": {"type": "DT_INT32"}, "T": {"type": "DT_FLOAT"}, "N": {"i": "3"}}}, {"name": "PartitionedCall/PartitionedCall/model/tfc3_7/tf_conv_52/mul_1", "op": "Mul", "input": ["PartitionedCall/PartitionedCall/model/tfc3_7/tf_conv_52/conv2d_52/BiasAdd", "PartitionedCall/PartitionedCall/model/tfc3_7/tf_conv_52/Sigmoid"], "attr": {"T": {"type": "DT_FLOAT"}}}, {"name": "PartitionedCall/PartitionedCall/model/tfc3_7/tf_conv_53/mul_1", "op": "Mul", "input": ["PartitionedCall/PartitionedCall/model/tfc3_7/tf_conv_53/conv2d_53/BiasAdd", "PartitionedCall/PartitionedCall/model/tfc3_7/tf_conv_53/Sigmoid"], "attr": {"T": {"type": "DT_FLOAT"}}}, {"name": "PartitionedCall/PartitionedCall/model/tf_detect/Reshape_3", "op": "Reshape", "input": ["PartitionedCall/PartitionedCall/model/tf_detect/concat_1", "PartitionedCall/PartitionedCall/model/tf_detect/Reshape_3/shape_1"], "attr": {"Tshape": {"type": "DT_INT32"}, "T": {"type": "DT_FLOAT"}}}, {"name": "PartitionedCall/PartitionedCall/model/tfc3_7/sequential_14/tf_bottleneck_10/tf_conv_55/conv2d_55/BiasAdd", "op": "_FusedConv2D", "input": ["PartitionedCall/PartitionedCall/model/tfc3_7/tf_conv_52/mul_1", "PartitionedCall/PartitionedCall/model/tfc3_7/sequential_14/tf_bottleneck_10/tf_conv_55/conv2d_55/Conv2D/ReadVariableOp", "PartitionedCall/PartitionedCall/model/tfc3_7/sequential_14/tf_bottleneck_10/tf_conv_55/conv2d_55/BiasAdd/ReadVariableOp"], "device": "/device:CPU:0", "attr": {"padding": {"s": "U0FNRQ=="}, "dilations": {"list": {"i": ["1", "1", "1", "1"]}}, "T": {"type": "DT_FLOAT"}, "num_args": {"i": "1"}, "strides": {"list": {"i": ["1", "1", "1", "1"]}}, "use_cudnn_on_gpu": {"b": true}, "data_format": {"s": "TkhXQw=="}, "explicit_paddings": {"list": {}}, "fused_ops": {"list": {"s": ["Qmlhc0FkZA=="]}}, "epsilon": {"f": 0.0}}}, {"name": "PartitionedCall/PartitionedCall/model/tfc3_7/sequential_14/tf_bottleneck_10/tf_conv_55/Sigmoid", "op": "Sigmoid", "input": ["PartitionedCall/PartitionedCall/model/tfc3_7/sequential_14/tf_bottleneck_10/tf_conv_55/conv2d_55/BiasAdd"], "attr": {"T": {"type": "DT_FLOAT"}}}, {"name": "PartitionedCall/PartitionedCall/model/tfc3_7/sequential_14/tf_bottleneck_10/tf_conv_55/mul_1", "op": "Mul", "input": ["PartitionedCall/PartitionedCall/model/tfc3_7/sequential_14/tf_bottleneck_10/tf_conv_55/conv2d_55/BiasAdd", "PartitionedCall/PartitionedCall/model/tfc3_7/sequential_14/tf_bottleneck_10/tf_conv_55/Sigmoid"], "attr": {"T": {"type": "DT_FLOAT"}}}, {"name": "PartitionedCall/PartitionedCall/model/tfc3_7/sequential_14/tf_bottleneck_10/tf_conv_56/conv2d_56/BiasAdd", "op": "_FusedConv2D", "input": ["PartitionedCall/PartitionedCall/model/tfc3_7/sequential_14/tf_bottleneck_10/tf_conv_55/mul_1", "PartitionedCall/PartitionedCall/model/tfc3_7/sequential_14/tf_bottleneck_10/tf_conv_56/conv2d_56/Conv2D/ReadVariableOp", "PartitionedCall/PartitionedCall/model/tfc3_7/sequential_14/tf_bottleneck_10/tf_conv_56/conv2d_56/BiasAdd/ReadVariableOp"], "device": "/device:CPU:0", "attr": {"data_format": {"s": "TkhXQw=="}, "epsilon": {"f": 0.0}, "T": {"type": "DT_FLOAT"}, "num_args": {"i": "1"}, "explicit_paddings": {"list": {}}, "fused_ops": {"list": {"s": ["Qmlhc0FkZA=="]}}, "use_cudnn_on_gpu": {"b": true}, "strides": {"list": {"i": ["1", "1", "1", "1"]}}, "padding": {"s": "U0FNRQ=="}, "dilations": {"list": {"i": ["1", "1", "1", "1"]}}}}, {"name": "PartitionedCall/PartitionedCall/model/tfc3_7/sequential_14/tf_bottleneck_10/tf_conv_56/Sigmoid", "op": "Sigmoid", "input": ["PartitionedCall/PartitionedCall/model/tfc3_7/sequential_14/tf_bottleneck_10/tf_conv_56/conv2d_56/BiasAdd"], "attr": {"T": {"type": "DT_FLOAT"}}}, {"name": "PartitionedCall/PartitionedCall/model/tfc3_7/sequential_14/tf_bottleneck_10/tf_conv_56/mul_1", "op": "Mul", "input": ["PartitionedCall/PartitionedCall/model/tfc3_7/sequential_14/tf_bottleneck_10/tf_conv_56/conv2d_56/BiasAdd", "PartitionedCall/PartitionedCall/model/tfc3_7/sequential_14/tf_bottleneck_10/tf_conv_56/Sigmoid"], "attr": {"T": {"type": "DT_FLOAT"}}}, {"name": "PartitionedCall/PartitionedCall/model/tfc3_7/concat", "op": "ConcatV2", "input": ["PartitionedCall/PartitionedCall/model/tfc3_7/sequential_14/tf_bottleneck_10/tf_conv_56/mul_1", "PartitionedCall/PartitionedCall/model/tfc3_7/tf_conv_53/mul_1", "PartitionedCall/PartitionedCall/model/tfc3_7/concat/axis"], "attr": {"T": {"type": "DT_FLOAT"}, "Tidx": {"type": "DT_INT32"}, "N": {"i": "2"}}}, {"name": "PartitionedCall/PartitionedCall/model/tfc3_7/tf_conv_54/conv2d_54/BiasAdd", "op": "_FusedConv2D", "input": ["PartitionedCall/PartitionedCall/model/tfc3_7/concat", "PartitionedCall/PartitionedCall/model/tfc3_7/tf_conv_54/conv2d_54/Conv2D/ReadVariableOp", "PartitionedCall/PartitionedCall/model/tfc3_7/tf_conv_54/conv2d_54/BiasAdd/ReadVariableOp"], "device": "/device:CPU:0", "attr": {"use_cudnn_on_gpu": {"b": true}, "padding": {"s": "U0FNRQ=="}, "fused_ops": {"list": {"s": ["Qmlhc0FkZA=="]}}, "data_format": {"s": "TkhXQw=="}, "strides": {"list": {"i": ["1", "1", "1", "1"]}}, "explicit_paddings": {"list": {}}, "num_args": {"i": "1"}, "T": {"type": "DT_FLOAT"}, "epsilon": {"f": 0.0}, "dilations": {"list": {"i": ["1", "1", "1", "1"]}}}}, {"name": "PartitionedCall/PartitionedCall/model/tfc3_7/tf_conv_54/Sigmoid", "op": "Sigmoid", "input": ["PartitionedCall/PartitionedCall/model/tfc3_7/tf_conv_54/conv2d_54/BiasAdd"], "attr": {"T": {"type": "DT_FLOAT"}}}, {"name": "PartitionedCall/PartitionedCall/model/tfc3_7/tf_conv_54/mul_1", "op": "Mul", "input": ["PartitionedCall/PartitionedCall/model/tfc3_7/tf_conv_54/conv2d_54/BiasAdd", "PartitionedCall/PartitionedCall/model/tfc3_7/tf_conv_54/Sigmoid"], "attr": {"T": {"type": "DT_FLOAT"}}}, {"name": "PartitionedCall/PartitionedCall/model/tf_detect/tf_conv2d_2/conv2d_59/BiasAdd", "op": "_FusedConv2D", "input": ["PartitionedCall/PartitionedCall/model/tfc3_7/tf_conv_54/mul_1", "PartitionedCall/PartitionedCall/model/tf_detect/tf_conv2d_2/conv2d_59/Conv2D/ReadVariableOp", "PartitionedCall/PartitionedCall/model/tf_detect/tf_conv2d_2/conv2d_59/BiasAdd/ReadVariableOp"], "device": "/device:CPU:0", "attr": {"fused_ops": {"list": {"s": ["Qmlhc0FkZA=="]}}, "data_format": {"s": "TkhXQw=="}, "padding": {"s": "VkFMSUQ="}, "T": {"type": "DT_FLOAT"}, "explicit_paddings": {"list": {}}, "epsilon": {"f": 0.0}, "dilations": {"list": {"i": ["1", "1", "1", "1"]}}, "strides": {"list": {"i": ["1", "1", "1", "1"]}}, "num_args": {"i": "1"}, "use_cudnn_on_gpu": {"b": true}}}, {"name": "PartitionedCall/PartitionedCall/model/tf_detect/Reshape_4", "op": "Reshape", "input": ["PartitionedCall/PartitionedCall/model/tf_detect/tf_conv2d_2/conv2d_59/BiasAdd", "PartitionedCall/PartitionedCall/model/tf_detect/Reshape_4/shape_1"], "attr": {"T": {"type": "DT_FLOAT"}, "Tshape": {"type": "DT_INT32"}}}, {"name": "PartitionedCall/PartitionedCall/model/tf_detect/Sigmoid_2", "op": "Sigmoid", "input": ["PartitionedCall/PartitionedCall/model/tf_detect/Reshape_4"], "attr": {"T": {"type": "DT_FLOAT"}}}, {"name": "PartitionedCall/PartitionedCall/model/tf_detect/strided_slice_19", "op": "StridedSlice", "input": ["PartitionedCall/PartitionedCall/model/tf_detect/Sigmoid_2", "PartitionedCall/PartitionedCall/model/tf_detect/strided_slice_19/stack", "PartitionedCall/PartitionedCall/model/tf_detect/strided_slice_19/stack_1", "PartitionedCall/PartitionedCall/model/tf_detect/strided_slice_19/stack_2"], "attr": {"new_axis_mask": {"i": "0"}, "end_mask": {"i": "0"}, "T": {"type": "DT_FLOAT"}, "Index": {"type": "DT_INT32"}, "ellipsis_mask": {"i": "1"}, "begin_mask": {"i": "0"}, "shrink_axis_mask": {"i": "0"}}}, {"name": "PartitionedCall/PartitionedCall/model/tf_detect/strided_slice_20", "op": "StridedSlice", "input": ["PartitionedCall/PartitionedCall/model/tf_detect/Sigmoid_2", "PartitionedCall/PartitionedCall/model/tf_detect/strided_slice_20/stack", "PartitionedCall/PartitionedCall/model/tf_detect/strided_slice_20/stack_1", "PartitionedCall/PartitionedCall/model/tf_detect/strided_slice_20/stack_2"], "attr": {"end_mask": {"i": "2"}, "new_axis_mask": {"i": "0"}, "T": {"type": "DT_FLOAT"}, "ellipsis_mask": {"i": "1"}, "begin_mask": {"i": "0"}, "shrink_axis_mask": {"i": "0"}, "Index": {"type": "DT_INT32"}}}, {"name": "PartitionedCall/PartitionedCall/model/tf_detect/strided_slice_17", "op": "StridedSlice", "input": ["PartitionedCall/PartitionedCall/model/tf_detect/Sigmoid_2", "PartitionedCall/PartitionedCall/model/tf_detect/strided_slice_17/stack", "PartitionedCall/PartitionedCall/model/tf_detect/strided_slice_17/stack_1", "PartitionedCall/PartitionedCall/model/tf_detect/strided_slice_17/stack_2"], "attr": {"T": {"type": "DT_FLOAT"}, "Index": {"type": "DT_INT32"}, "new_axis_mask": {"i": "0"}, "begin_mask": {"i": "0"}, "end_mask": {"i": "0"}, "shrink_axis_mask": {"i": "0"}, "ellipsis_mask": {"i": "1"}}}, {"name": "PartitionedCall/PartitionedCall/model/tf_detect/pow_2", "op": "Square", "input": ["PartitionedCall/PartitionedCall/model/tf_detect/strided_slice_19"], "attr": {"T": {"type": "DT_FLOAT"}}}, {"name": "PartitionedCall/PartitionedCall/model/tf_detect/mul_16", "op": "Mul", "input": ["PartitionedCall/PartitionedCall/model/tf_detect/strided_slice_17", "PartitionedCall/PartitionedCall/model/tf_detect/mul_16/y"], "attr": {"T": {"type": "DT_FLOAT"}}}, {"name": "PartitionedCall/PartitionedCall/model/tf_detect/truediv_5", "op": "Mul", "input": ["PartitionedCall/PartitionedCall/model/tf_detect/pow_2", "PartitionedCall/PartitionedCall/model/tf_detect/mul_18"], "attr": {"T": {"type": "DT_FLOAT"}}}, {"name": "PartitionedCall/PartitionedCall/model/tf_detect/add_2", "op": "AddV2", "input": ["PartitionedCall/PartitionedCall/model/tf_detect/mul_16", "PartitionedCall/PartitionedCall/model/tf_detect/sub_2"], "attr": {"T": {"type": "DT_FLOAT"}}}, {"name": "PartitionedCall/PartitionedCall/model/tf_detect/truediv_4", "op": "Mul", "input": ["PartitionedCall/PartitionedCall/model/tf_detect/add_2", "PartitionedCall/PartitionedCall/model/tf_detect/mul_17"], "attr": {"T": {"type": "DT_FLOAT"}}}, {"name": "PartitionedCall/PartitionedCall/model/tf_detect/concat_2", "op": "ConcatV2", "input": ["PartitionedCall/PartitionedCall/model/tf_detect/truediv_4", "PartitionedCall/PartitionedCall/model/tf_detect/truediv_5", "PartitionedCall/PartitionedCall/model/tf_detect/strided_slice_20", "PartitionedCall/PartitionedCall/model/tf_detect/concat_2/axis"], "attr": {"T": {"type": "DT_FLOAT"}, "Tidx": {"type": "DT_INT32"}, "N": {"i": "3"}}}, {"name": "PartitionedCall/PartitionedCall/model/tf_detect/Reshape_5", "op": "Reshape", "input": ["PartitionedCall/PartitionedCall/model/tf_detect/concat_2", "PartitionedCall/PartitionedCall/model/tf_detect/Reshape_5/shape_1"], "attr": {"T": {"type": "DT_FLOAT"}, "Tshape": {"type": "DT_INT32"}}}, {"name": "PartitionedCall/PartitionedCall/model/tf_detect/concat_3", "op": "ConcatV2", "input": ["PartitionedCall/PartitionedCall/model/tf_detect/Reshape_1", "PartitionedCall/PartitionedCall/model/tf_detect/Reshape_3", "PartitionedCall/PartitionedCall/model/tf_detect/Reshape_5", "PartitionedCall/PartitionedCall/model/tf_detect/concat_3/axis"], "attr": {"T": {"type": "DT_FLOAT"}, "Tidx": {"type": "DT_INT32"}, "N": {"i": "3"}}}, {"name": "Identity", "op": "Identity", "input": ["PartitionedCall/PartitionedCall/model/tf_detect/concat_3"], "attr": {"T": {"type": "DT_FLOAT"}}}], "library": {}, "versions": {"producer": 1087}}, "weightsManifest": [{"paths": ["group1-shard1of2.bin", "group1-shard2of2.bin"], "weights": [{"name": "PartitionedCall/PartitionedCall/model/tf_detect/strided_slice_3/stack", "shape": [2], "dtype": "int32"}, {"name": "PartitionedCall/PartitionedCall/model/tf_detect/strided_slice_3/stack_1", "shape": [2], "dtype": "int32"}, {"name": "PartitionedCall/PartitionedCall/model/tf_detect/strided_slice_3/stack_2", "shape": [2], "dtype": "int32"}, {"name": "PartitionedCall/PartitionedCall/model/tf_detect/mul_2/y", "shape": [], "dtype": "float32"}, {"name": "PartitionedCall/PartitionedCall/model/tf_detect/sub", "shape": [1, 1600, 1, 2], "dtype": "float32"}, {"name": "PartitionedCall/PartitionedCall/model/tf_detect/mul_3", "shape": [1, 2], "dtype": "float32"}, {"name": "PartitionedCall/PartitionedCall/model/tf_detect/strided_slice_5/stack", "shape": [2], "dtype": "int32"}, {"name": "PartitionedCall/PartitionedCall/model/tf_detect/strided_slice_5/stack_1", "shape": [2], "dtype": "int32"}, {"name": "PartitionedCall/PartitionedCall/model/tf_detect/strided_slice_5/stack_2", "shape": [2], "dtype": "int32"}, {"name": "PartitionedCall/PartitionedCall/model/tf_detect/mul_4", "shape": [1, 1, 3, 2], "dtype": "float32"}, {"name": "PartitionedCall/PartitionedCall/model/tf_detect/tf_conv2d/conv2d_57/Conv2D/ReadVariableOp", "shape": [1, 1, 64, 51], "dtype": "float32"}, {"name": "PartitionedCall/PartitionedCall/model/tf_detect/tf_conv2d/conv2d_57/BiasAdd/ReadVariableOp", "shape": [51], "dtype": "float32"}, {"name": "PartitionedCall/PartitionedCall/model/tf_detect/Reshape/shape_1", "shape": [4], "dtype": "int32"}, {"name": "PartitionedCall/PartitionedCall/model/tf_detect/strided_slice_6/stack", "shape": [2], "dtype": "int32"}, {"name": "PartitionedCall/PartitionedCall/model/tf_detect/strided_slice_6/stack_1", "shape": [2], "dtype": "int32"}, {"name": "PartitionedCall/PartitionedCall/model/tf_detect/strided_slice_6/stack_2", "shape": [2], "dtype": "int32"}, {"name": "PartitionedCall/PartitionedCall/model/tf_detect/concat/axis", "shape": [], "dtype": "int32"}, {"name": "PartitionedCall/PartitionedCall/model/tf_detect/Reshape_1/shape_1", "shape": [3], "dtype": "int32"}, {"name": "PartitionedCall/PartitionedCall/model/tf_detect/strided_slice_10/stack", "shape": [2], "dtype": "int32"}, {"name": "PartitionedCall/PartitionedCall/model/tf_detect/strided_slice_10/stack_1", "shape": [2], "dtype": "int32"}, {"name": "PartitionedCall/PartitionedCall/model/tf_detect/strided_slice_10/stack_2", "shape": [2], "dtype": "int32"}, {"name": "PartitionedCall/PartitionedCall/model/tf_detect/mul_9/y", "shape": [], "dtype": "float32"}, {"name": "PartitionedCall/PartitionedCall/model/tf_detect/sub_1", "shape": [1, 400, 1, 2], "dtype": "float32"}, {"name": "PartitionedCall/PartitionedCall/model/tf_detect/mul_10", "shape": [1, 2], "dtype": "float32"}, {"name": "PartitionedCall/PartitionedCall/model/tf_detect/strided_slice_12/stack", "shape": [2], "dtype": "int32"}, {"name": "PartitionedCall/PartitionedCall/model/tf_detect/strided_slice_12/stack_1", "shape": [2], "dtype": "int32"}, {"name": "PartitionedCall/PartitionedCall/model/tf_detect/strided_slice_12/stack_2", "shape": [2], "dtype": "int32"}, {"name": "PartitionedCall/PartitionedCall/model/tf_detect/mul_11", "shape": [1, 1, 3, 2], "dtype": "float32"}, {"name": "PartitionedCall/PartitionedCall/model/tf_detect/tf_conv2d_1/conv2d_58/Conv2D/ReadVariableOp", "shape": [1, 1, 128, 51], "dtype": "float32"}, {"name": "PartitionedCall/PartitionedCall/model/tf_detect/tf_conv2d_1/conv2d_58/BiasAdd/ReadVariableOp", "shape": [51], "dtype": "float32"}, {"name": "PartitionedCall/PartitionedCall/model/tf_detect/Reshape_2/shape_1", "shape": [4], "dtype": "int32"}, {"name": "PartitionedCall/PartitionedCall/model/tf_detect/strided_slice_13/stack", "shape": [2], "dtype": "int32"}, {"name": "PartitionedCall/PartitionedCall/model/tf_detect/strided_slice_13/stack_1", "shape": [2], "dtype": "int32"}, {"name": "PartitionedCall/PartitionedCall/model/tf_detect/strided_slice_13/stack_2", "shape": [2], "dtype": "int32"}, {"name": "PartitionedCall/PartitionedCall/model/tf_detect/concat_1/axis", "shape": [], "dtype": "int32"}, {"name": "PartitionedCall/PartitionedCall/model/tf_detect/Reshape_3/shape_1", "shape": [3], "dtype": "int32"}, {"name": "PartitionedCall/PartitionedCall/model/tf_detect/strided_slice_17/stack", "shape": [2], "dtype": "int32"}, {"name": "PartitionedCall/PartitionedCall/model/tf_detect/strided_slice_17/stack_1", "shape": [2], "dtype": "int32"}, {"name": "PartitionedCall/PartitionedCall/model/tf_detect/strided_slice_17/stack_2", "shape": [2], "dtype": "int32"}, {"name": "PartitionedCall/PartitionedCall/model/tf_detect/mul_16/y", "shape": [], "dtype": "float32"}, {"name": "PartitionedCall/PartitionedCall/model/tf_detect/sub_2", "shape": [1, 100, 1, 2], "dtype": "float32"}, {"name": "PartitionedCall/PartitionedCall/model/tf_detect/mul_17", "shape": [1, 2], "dtype": "float32"}, {"name": "PartitionedCall/PartitionedCall/model/tf_detect/strided_slice_19/stack", "shape": [2], "dtype": "int32"}, {"name": "PartitionedCall/PartitionedCall/model/tf_detect/strided_slice_19/stack_1", "shape": [2], "dtype": "int32"}, {"name": "PartitionedCall/PartitionedCall/model/tf_detect/strided_slice_19/stack_2", "shape": [2], "dtype": "int32"}, {"name": "PartitionedCall/PartitionedCall/model/tf_detect/mul_18", "shape": [1, 1, 3, 2], "dtype": "float32"}, {"name": "PartitionedCall/PartitionedCall/model/tfc3_7/tf_conv_52/conv2d_52/Conv2D/ReadVariableOp", "shape": [1, 1, 256, 128], "dtype": "float32"}, {"name": "PartitionedCall/PartitionedCall/model/tfc3_7/tf_conv_52/conv2d_52/BiasAdd/ReadVariableOp", "shape": [128], "dtype": "float32"}, {"name": "PartitionedCall/PartitionedCall/model/tfc3_7/sequential_14/tf_bottleneck_10/tf_conv_55/conv2d_55/Conv2D/ReadVariableOp", "shape": [1, 1, 128, 128], "dtype": "float32"}, {"name": "PartitionedCall/PartitionedCall/model/tfc3_7/sequential_14/tf_bottleneck_10/tf_conv_55/conv2d_55/BiasAdd/ReadVariableOp", "shape": [128], "dtype": "float32"}, {"name": "PartitionedCall/PartitionedCall/model/tfc3_7/sequential_14/tf_bottleneck_10/tf_conv_56/conv2d_56/Conv2D/ReadVariableOp", "shape": [3, 3, 128, 128], "dtype": "float32"}, {"name": "PartitionedCall/PartitionedCall/model/tfc3_7/sequential_14/tf_bottleneck_10/tf_conv_56/conv2d_56/BiasAdd/ReadVariableOp", "shape": [128], "dtype": "float32"}, {"name": "PartitionedCall/PartitionedCall/model/tfc3_6/tf_conv_46/conv2d_46/Conv2D/ReadVariableOp", "shape": [1, 1, 128, 64], "dtype": "float32"}, {"name": "PartitionedCall/PartitionedCall/model/tfc3_6/tf_conv_46/conv2d_46/BiasAdd/ReadVariableOp", "shape": [64], "dtype": "float32"}, {"name": "PartitionedCall/PartitionedCall/model/tfc3_6/sequential_12/tf_bottleneck_9/tf_conv_49/conv2d_49/Conv2D/ReadVariableOp", "shape": [1, 1, 64, 64], "dtype": "float32"}, {"name": "PartitionedCall/PartitionedCall/model/tfc3_6/sequential_12/tf_bottleneck_9/tf_conv_49/conv2d_49/BiasAdd/ReadVariableOp", "shape": [64], "dtype": "float32"}, {"name": "PartitionedCall/PartitionedCall/model/tfc3_6/sequential_12/tf_bottleneck_9/tf_conv_50/conv2d_50/Conv2D/ReadVariableOp", "shape": [3, 3, 64, 64], "dtype": "float32"}, {"name": "PartitionedCall/PartitionedCall/model/tfc3_6/sequential_12/tf_bottleneck_9/tf_conv_50/conv2d_50/BiasAdd/ReadVariableOp", "shape": [64], "dtype": "float32"}, {"name": "PartitionedCall/PartitionedCall/model/tfc3_5/tf_conv_40/conv2d_40/Conv2D/ReadVariableOp", "shape": [1, 1, 128, 32], "dtype": "float32"}, {"name": "PartitionedCall/PartitionedCall/model/tfc3_5/tf_conv_40/conv2d_40/BiasAdd/ReadVariableOp", "shape": [32], "dtype": "float32"}, {"name": "PartitionedCall/PartitionedCall/model/tfc3_5/sequential_10/tf_bottleneck_8/tf_conv_43/conv2d_43/Conv2D/ReadVariableOp", "shape": [1, 1, 32, 32], "dtype": "float32"}, {"name": "PartitionedCall/PartitionedCall/model/tfc3_5/sequential_10/tf_bottleneck_8/tf_conv_43/conv2d_43/BiasAdd/ReadVariableOp", "shape": [32], "dtype": "float32"}, {"name": "PartitionedCall/PartitionedCall/model/tfc3_5/sequential_10/tf_bottleneck_8/tf_conv_44/conv2d_44/Conv2D/ReadVariableOp", "shape": [3, 3, 32, 32], "dtype": "float32"}, {"name": "PartitionedCall/PartitionedCall/model/tfc3_5/sequential_10/tf_bottleneck_8/tf_conv_44/conv2d_44/BiasAdd/ReadVariableOp", "shape": [32], "dtype": "float32"}, {"name": "PartitionedCall/PartitionedCall/model/tf_upsample_1/resize/size", "shape": [2], "dtype": "int32"}, {"name": "PartitionedCall/PartitionedCall/model/tf_concat_1/concat/axis", "shape": [], "dtype": "int32"}, {"name": "PartitionedCall/PartitionedCall/model/tfc3_5/tf_conv_41/conv2d_41/Conv2D/ReadVariableOp", "shape": [1, 1, 128, 32], "dtype": "float32"}, {"name": "PartitionedCall/PartitionedCall/model/tfc3_5/tf_conv_41/conv2d_41/BiasAdd/ReadVariableOp", "shape": [32], "dtype": "float32"}, {"name": "PartitionedCall/PartitionedCall/model/tfc3_5/concat/axis", "shape": [], "dtype": "int32"}, {"name": "PartitionedCall/PartitionedCall/model/tfc3_5/tf_conv_42/conv2d_42/Conv2D/ReadVariableOp", "shape": [1, 1, 64, 64], "dtype": "float32"}, {"name": "PartitionedCall/PartitionedCall/model/tfc3_5/tf_conv_42/conv2d_42/BiasAdd/ReadVariableOp", "shape": [64], "dtype": "float32"}, {"name": "PartitionedCall/PartitionedCall/model/tf_conv_45/sequential_11/tf_pad_5/Pad/paddings", "shape": [4, 2], "dtype": "int32"}, {"name": "PartitionedCall/PartitionedCall/model/tf_conv_45/sequential_11/conv2d_45/Conv2D/ReadVariableOp", "shape": [3, 3, 64, 64], "dtype": "float32"}, {"name": "PartitionedCall/PartitionedCall/model/tf_conv_45/sequential_11/conv2d_45/BiasAdd/ReadVariableOp", "shape": [64], "dtype": "float32"}, {"name": "PartitionedCall/PartitionedCall/model/tfc3_4/tf_conv_34/conv2d_34/Conv2D/ReadVariableOp", "shape": [1, 1, 256, 64], "dtype": "float32"}, {"name": "PartitionedCall/PartitionedCall/model/tfc3_4/tf_conv_34/conv2d_34/BiasAdd/ReadVariableOp", "shape": [64], "dtype": "float32"}, {"name": "PartitionedCall/PartitionedCall/model/tfc3_4/sequential_9/tf_bottleneck_7/tf_conv_37/conv2d_37/Conv2D/ReadVariableOp", "shape": [1, 1, 64, 64], "dtype": "float32"}, {"name": "PartitionedCall/PartitionedCall/model/tfc3_4/sequential_9/tf_bottleneck_7/tf_conv_37/conv2d_37/BiasAdd/ReadVariableOp", "shape": [64], "dtype": "float32"}, {"name": "PartitionedCall/PartitionedCall/model/tfc3_4/sequential_9/tf_bottleneck_7/tf_conv_38/conv2d_38/Conv2D/ReadVariableOp", "shape": [3, 3, 64, 64], "dtype": "float32"}, {"name": "PartitionedCall/PartitionedCall/model/tfc3_4/sequential_9/tf_bottleneck_7/tf_conv_38/conv2d_38/BiasAdd/ReadVariableOp", "shape": [64], "dtype": "float32"}, {"name": "PartitionedCall/PartitionedCall/model/tf_upsample/resize/size", "shape": [2], "dtype": "int32"}, {"name": "PartitionedCall/PartitionedCall/model/tf_concat/concat/axis", "shape": [], "dtype": "int32"}, {"name": "PartitionedCall/PartitionedCall/model/tfc3_4/tf_conv_35/conv2d_35/Conv2D/ReadVariableOp", "shape": [1, 1, 256, 64], "dtype": "float32"}, {"name": "PartitionedCall/PartitionedCall/model/tfc3_4/tf_conv_35/conv2d_35/BiasAdd/ReadVariableOp", "shape": [64], "dtype": "float32"}, {"name": "PartitionedCall/PartitionedCall/model/tfc3_4/concat/axis", "shape": [], "dtype": "int32"}, {"name": "PartitionedCall/PartitionedCall/model/tfc3_4/tf_conv_36/conv2d_36/Conv2D/ReadVariableOp", "shape": [1, 1, 128, 128], "dtype": "float32"}, {"name": "PartitionedCall/PartitionedCall/model/tfc3_4/tf_conv_36/conv2d_36/BiasAdd/ReadVariableOp", "shape": [128], "dtype": "float32"}, {"name": "PartitionedCall/PartitionedCall/model/tf_conv_39/conv2d_39/Conv2D/ReadVariableOp", "shape": [1, 1, 128, 64], "dtype": "float32"}, {"name": "PartitionedCall/PartitionedCall/model/tf_conv_39/conv2d_39/BiasAdd/ReadVariableOp", "shape": [64], "dtype": "float32"}, {"name": "PartitionedCall/PartitionedCall/model/tf_concat_2/concat/axis", "shape": [], "dtype": "int32"}, {"name": "PartitionedCall/PartitionedCall/model/tfc3_6/tf_conv_47/conv2d_47/Conv2D/ReadVariableOp", "shape": [1, 1, 128, 64], "dtype": "float32"}, {"name": "PartitionedCall/PartitionedCall/model/tfc3_6/tf_conv_47/conv2d_47/BiasAdd/ReadVariableOp", "shape": [64], "dtype": "float32"}, {"name": "PartitionedCall/PartitionedCall/model/tfc3_6/concat/axis", "shape": [], "dtype": "int32"}, {"name": "PartitionedCall/PartitionedCall/model/tfc3_6/tf_conv_48/conv2d_48/Conv2D/ReadVariableOp", "shape": [1, 1, 128, 128], "dtype": "float32"}, {"name": "PartitionedCall/PartitionedCall/model/tfc3_6/tf_conv_48/conv2d_48/BiasAdd/ReadVariableOp", "shape": [128], "dtype": "float32"}, {"name": "PartitionedCall/PartitionedCall/model/tf_conv_51/sequential_13/tf_pad_6/Pad/paddings", "shape": [4, 2], "dtype": "int32"}, {"name": "PartitionedCall/PartitionedCall/model/tf_conv_51/sequential_13/conv2d_51/Conv2D/ReadVariableOp", "shape": [3, 3, 128, 128], "dtype": "float32"}, {"name": "PartitionedCall/PartitionedCall/model/tf_conv_51/sequential_13/conv2d_51/BiasAdd/ReadVariableOp", "shape": [128], "dtype": "float32"}, {"name": "PartitionedCall/PartitionedCall/model/tfc3_3/tf_conv_26/conv2d_26/Conv2D/ReadVariableOp", "shape": [1, 1, 256, 128], "dtype": "float32"}, {"name": "PartitionedCall/PartitionedCall/model/tfc3_3/tf_conv_26/conv2d_26/BiasAdd/ReadVariableOp", "shape": [128], "dtype": "float32"}, {"name": "PartitionedCall/PartitionedCall/model/tfc3_3/sequential_8/tf_bottleneck_6/tf_conv_29/conv2d_29/Conv2D/ReadVariableOp", "shape": [1, 1, 128, 128], "dtype": "float32"}, {"name": "PartitionedCall/PartitionedCall/model/tfc3_3/sequential_8/tf_bottleneck_6/tf_conv_29/conv2d_29/BiasAdd/ReadVariableOp", "shape": [128], "dtype": "float32"}, {"name": "PartitionedCall/PartitionedCall/model/tfc3_3/sequential_8/tf_bottleneck_6/tf_conv_30/conv2d_30/Conv2D/ReadVariableOp", "shape": [3, 3, 128, 128], "dtype": "float32"}, {"name": "PartitionedCall/PartitionedCall/model/tfc3_3/sequential_8/tf_bottleneck_6/tf_conv_30/conv2d_30/BiasAdd/ReadVariableOp", "shape": [128], "dtype": "float32"}, {"name": "PartitionedCall/PartitionedCall/model/tfc3_2/tf_conv_16/conv2d_16/Conv2D/ReadVariableOp", "shape": [1, 1, 128, 64], "dtype": "float32"}, {"name": "PartitionedCall/PartitionedCall/model/tfc3_2/tf_conv_16/conv2d_16/BiasAdd/ReadVariableOp", "shape": [64], "dtype": "float32"}, {"name": "PartitionedCall/PartitionedCall/model/tfc3_2/sequential_6/tf_bottleneck_3/tf_conv_19/conv2d_19/Conv2D/ReadVariableOp", "shape": [1, 1, 64, 64], "dtype": "float32"}, {"name": "PartitionedCall/PartitionedCall/model/tfc3_2/sequential_6/tf_bottleneck_3/tf_conv_19/conv2d_19/BiasAdd/ReadVariableOp", "shape": [64], "dtype": "float32"}, {"name": "PartitionedCall/PartitionedCall/model/tfc3_2/sequential_6/tf_bottleneck_3/tf_conv_20/conv2d_20/Conv2D/ReadVariableOp", "shape": [3, 3, 64, 64], "dtype": "float32"}, {"name": "PartitionedCall/PartitionedCall/model/tfc3_2/sequential_6/tf_bottleneck_3/tf_conv_20/conv2d_20/BiasAdd/ReadVariableOp", "shape": [64], "dtype": "float32"}, {"name": "PartitionedCall/PartitionedCall/model/tfc3_2/sequential_6/tf_bottleneck_4/tf_conv_21/conv2d_21/Conv2D/ReadVariableOp", "shape": [1, 1, 64, 64], "dtype": "float32"}, {"name": "PartitionedCall/PartitionedCall/model/tfc3_2/sequential_6/tf_bottleneck_4/tf_conv_21/conv2d_21/BiasAdd/ReadVariableOp", "shape": [64], "dtype": "float32"}, {"name": "PartitionedCall/PartitionedCall/model/tfc3_2/sequential_6/tf_bottleneck_4/tf_conv_22/conv2d_22/Conv2D/ReadVariableOp", "shape": [3, 3, 64, 64], "dtype": "float32"}, {"name": "PartitionedCall/PartitionedCall/model/tfc3_2/sequential_6/tf_bottleneck_4/tf_conv_22/conv2d_22/BiasAdd/ReadVariableOp", "shape": [64], "dtype": "float32"}, {"name": "PartitionedCall/PartitionedCall/model/tfc3_2/sequential_6/tf_bottleneck_5/tf_conv_23/conv2d_23/Conv2D/ReadVariableOp", "shape": [1, 1, 64, 64], "dtype": "float32"}, {"name": "PartitionedCall/PartitionedCall/model/tfc3_2/sequential_6/tf_bottleneck_5/tf_conv_23/conv2d_23/BiasAdd/ReadVariableOp", "shape": [64], "dtype": "float32"}, {"name": "PartitionedCall/PartitionedCall/model/tfc3_2/sequential_6/tf_bottleneck_5/tf_conv_24/conv2d_24/Conv2D/ReadVariableOp", "shape": [3, 3, 64, 64], "dtype": "float32"}, {"name": "PartitionedCall/PartitionedCall/model/tfc3_2/sequential_6/tf_bottleneck_5/tf_conv_24/conv2d_24/BiasAdd/ReadVariableOp", "shape": [64], "dtype": "float32"}, {"name": "PartitionedCall/PartitionedCall/model/tfc3_1/tf_conv_8/conv2d_8/Conv2D/ReadVariableOp", "shape": [1, 1, 64, 32], "dtype": "float32"}, {"name": "PartitionedCall/PartitionedCall/model/tfc3_1/tf_conv_8/conv2d_8/BiasAdd/ReadVariableOp", "shape": [32], "dtype": "float32"}, {"name": "PartitionedCall/PartitionedCall/model/tfc3_1/sequential_4/tf_bottleneck_1/tf_conv_11/conv2d_11/Conv2D/ReadVariableOp", "shape": [1, 1, 32, 32], "dtype": "float32"}, {"name": "PartitionedCall/PartitionedCall/model/tfc3_1/sequential_4/tf_bottleneck_1/tf_conv_11/conv2d_11/BiasAdd/ReadVariableOp", "shape": [32], "dtype": "float32"}, {"name": "PartitionedCall/PartitionedCall/model/tfc3_1/sequential_4/tf_bottleneck_1/tf_conv_12/conv2d_12/Conv2D/ReadVariableOp", "shape": [3, 3, 32, 32], "dtype": "float32"}, {"name": "PartitionedCall/PartitionedCall/model/tfc3_1/sequential_4/tf_bottleneck_1/tf_conv_12/conv2d_12/BiasAdd/ReadVariableOp", "shape": [32], "dtype": "float32"}, {"name": "PartitionedCall/PartitionedCall/model/tfc3_1/sequential_4/tf_bottleneck_2/tf_conv_13/conv2d_13/Conv2D/ReadVariableOp", "shape": [1, 1, 32, 32], "dtype": "float32"}, {"name": "PartitionedCall/PartitionedCall/model/tfc3_1/sequential_4/tf_bottleneck_2/tf_conv_13/conv2d_13/BiasAdd/ReadVariableOp", "shape": [32], "dtype": "float32"}, {"name": "PartitionedCall/PartitionedCall/model/tfc3_1/sequential_4/tf_bottleneck_2/tf_conv_14/conv2d_14/Conv2D/ReadVariableOp", "shape": [3, 3, 32, 32], "dtype": "float32"}, {"name": "PartitionedCall/PartitionedCall/model/tfc3_1/sequential_4/tf_bottleneck_2/tf_conv_14/conv2d_14/BiasAdd/ReadVariableOp", "shape": [32], "dtype": "float32"}, {"name": "PartitionedCall/PartitionedCall/model/tfc3/tf_conv_2/conv2d_2/Conv2D/ReadVariableOp", "shape": [1, 1, 32, 16], "dtype": "float32"}, {"name": "PartitionedCall/PartitionedCall/model/tfc3/tf_conv_2/conv2d_2/BiasAdd/ReadVariableOp", "shape": [16], "dtype": "float32"}, {"name": "PartitionedCall/PartitionedCall/model/tfc3/sequential_2/tf_bottleneck/tf_conv_5/conv2d_5/Conv2D/ReadVariableOp", "shape": [1, 1, 16, 16], "dtype": "float32"}, {"name": "PartitionedCall/PartitionedCall/model/tfc3/sequential_2/tf_bottleneck/tf_conv_5/conv2d_5/BiasAdd/ReadVariableOp", "shape": [16], "dtype": "float32"}, {"name": "PartitionedCall/PartitionedCall/model/tfc3/sequential_2/tf_bottleneck/tf_conv_6/conv2d_6/Conv2D/ReadVariableOp", "shape": [3, 3, 16, 16], "dtype": "float32"}, {"name": "PartitionedCall/PartitionedCall/model/tfc3/sequential_2/tf_bottleneck/tf_conv_6/conv2d_6/BiasAdd/ReadVariableOp", "shape": [16], "dtype": "float32"}, {"name": "PartitionedCall/PartitionedCall/model/tf_conv/sequential/tf_pad/Pad/paddings", "shape": [4, 2], "dtype": "int32"}, {"name": "PartitionedCall/PartitionedCall/model/tf_conv/sequential/conv2d/Conv2D/ReadVariableOp", "shape": [6, 6, 3, 16], "dtype": "float32"}, {"name": "PartitionedCall/PartitionedCall/model/tf_conv/sequential/conv2d/BiasAdd/ReadVariableOp", "shape": [16], "dtype": "float32"}, {"name": "PartitionedCall/PartitionedCall/model/tf_conv_1/sequential_1/tf_pad_1/Pad/paddings", "shape": [4, 2], "dtype": "int32"}, {"name": "PartitionedCall/PartitionedCall/model/tf_conv_1/sequential_1/conv2d_1/Conv2D/ReadVariableOp", "shape": [3, 3, 16, 32], "dtype": "float32"}, {"name": "PartitionedCall/PartitionedCall/model/tf_conv_1/sequential_1/conv2d_1/BiasAdd/ReadVariableOp", "shape": [32], "dtype": "float32"}, {"name": "PartitionedCall/PartitionedCall/model/tfc3/tf_conv_3/conv2d_3/Conv2D/ReadVariableOp", "shape": [1, 1, 32, 16], "dtype": "float32"}, {"name": "PartitionedCall/PartitionedCall/model/tfc3/tf_conv_3/conv2d_3/BiasAdd/ReadVariableOp", "shape": [16], "dtype": "float32"}, {"name": "PartitionedCall/PartitionedCall/model/tfc3/concat/axis", "shape": [], "dtype": "int32"}, {"name": "PartitionedCall/PartitionedCall/model/tfc3/tf_conv_4/conv2d_4/Conv2D/ReadVariableOp", "shape": [1, 1, 32, 32], "dtype": "float32"}, {"name": "PartitionedCall/PartitionedCall/model/tfc3/tf_conv_4/conv2d_4/BiasAdd/ReadVariableOp", "shape": [32], "dtype": "float32"}, {"name": "PartitionedCall/PartitionedCall/model/tf_conv_7/sequential_3/tf_pad_2/Pad/paddings", "shape": [4, 2], "dtype": "int32"}, {"name": "PartitionedCall/PartitionedCall/model/tf_conv_7/sequential_3/conv2d_7/Conv2D/ReadVariableOp", "shape": [3, 3, 32, 64], "dtype": "float32"}, {"name": "PartitionedCall/PartitionedCall/model/tf_conv_7/sequential_3/conv2d_7/BiasAdd/ReadVariableOp", "shape": [64], "dtype": "float32"}, {"name": "PartitionedCall/PartitionedCall/model/tfc3_1/tf_conv_9/conv2d_9/Conv2D/ReadVariableOp", "shape": [1, 1, 64, 32], "dtype": "float32"}, {"name": "PartitionedCall/PartitionedCall/model/tfc3_1/tf_conv_9/conv2d_9/BiasAdd/ReadVariableOp", "shape": [32], "dtype": "float32"}, {"name": "PartitionedCall/PartitionedCall/model/tfc3_1/concat/axis", "shape": [], "dtype": "int32"}, {"name": "PartitionedCall/PartitionedCall/model/tfc3_1/tf_conv_10/conv2d_10/Conv2D/ReadVariableOp", "shape": [1, 1, 64, 64], "dtype": "float32"}, {"name": "PartitionedCall/PartitionedCall/model/tfc3_1/tf_conv_10/conv2d_10/BiasAdd/ReadVariableOp", "shape": [64], "dtype": "float32"}, {"name": "PartitionedCall/PartitionedCall/model/tf_conv_15/sequential_5/tf_pad_3/Pad/paddings", "shape": [4, 2], "dtype": "int32"}, {"name": "PartitionedCall/PartitionedCall/model/tf_conv_15/sequential_5/conv2d_15/Conv2D/ReadVariableOp", "shape": [3, 3, 64, 128], "dtype": "float32"}, {"name": "PartitionedCall/PartitionedCall/model/tf_conv_15/sequential_5/conv2d_15/BiasAdd/ReadVariableOp", "shape": [128], "dtype": "float32"}, {"name": "PartitionedCall/PartitionedCall/model/tfc3_2/tf_conv_17/conv2d_17/Conv2D/ReadVariableOp", "shape": [1, 1, 128, 64], "dtype": "float32"}, {"name": "PartitionedCall/PartitionedCall/model/tfc3_2/tf_conv_17/conv2d_17/BiasAdd/ReadVariableOp", "shape": [64], "dtype": "float32"}, {"name": "PartitionedCall/PartitionedCall/model/tfc3_2/concat/axis", "shape": [], "dtype": "int32"}, {"name": "PartitionedCall/PartitionedCall/model/tfc3_2/tf_conv_18/conv2d_18/Conv2D/ReadVariableOp", "shape": [1, 1, 128, 128], "dtype": "float32"}, {"name": "PartitionedCall/PartitionedCall/model/tfc3_2/tf_conv_18/conv2d_18/BiasAdd/ReadVariableOp", "shape": [128], "dtype": "float32"}, {"name": "PartitionedCall/PartitionedCall/model/tf_conv_25/sequential_7/tf_pad_4/Pad/paddings", "shape": [4, 2], "dtype": "int32"}, {"name": "PartitionedCall/PartitionedCall/model/tf_conv_25/sequential_7/conv2d_25/Conv2D/ReadVariableOp", "shape": [3, 3, 128, 256], "dtype": "float32"}, {"name": "PartitionedCall/PartitionedCall/model/tf_conv_25/sequential_7/conv2d_25/BiasAdd/ReadVariableOp", "shape": [256], "dtype": "float32"}, {"name": "PartitionedCall/PartitionedCall/model/tfc3_3/tf_conv_27/conv2d_27/Conv2D/ReadVariableOp", "shape": [1, 1, 256, 128], "dtype": "float32"}, {"name": "PartitionedCall/PartitionedCall/model/tfc3_3/tf_conv_27/conv2d_27/BiasAdd/ReadVariableOp", "shape": [128], "dtype": "float32"}, {"name": "PartitionedCall/PartitionedCall/model/tfc3_3/concat/axis", "shape": [], "dtype": "int32"}, {"name": "PartitionedCall/PartitionedCall/model/tfc3_3/tf_conv_28/conv2d_28/Conv2D/ReadVariableOp", "shape": [1, 1, 256, 256], "dtype": "float32"}, {"name": "PartitionedCall/PartitionedCall/model/tfc3_3/tf_conv_28/conv2d_28/BiasAdd/ReadVariableOp", "shape": [256], "dtype": "float32"}, {"name": "PartitionedCall/PartitionedCall/model/tfsppf/tf_conv_31/conv2d_31/Conv2D/ReadVariableOp", "shape": [1, 1, 256, 128], "dtype": "float32"}, {"name": "PartitionedCall/PartitionedCall/model/tfsppf/tf_conv_31/conv2d_31/BiasAdd/ReadVariableOp", "shape": [128], "dtype": "float32"}, {"name": "PartitionedCall/PartitionedCall/model/tfsppf/concat/axis", "shape": [], "dtype": "int32"}, {"name": "PartitionedCall/PartitionedCall/model/tfsppf/tf_conv_32/conv2d_32/Conv2D/ReadVariableOp", "shape": [1, 1, 512, 256], "dtype": "float32"}, {"name": "PartitionedCall/PartitionedCall/model/tfsppf/tf_conv_32/conv2d_32/BiasAdd/ReadVariableOp", "shape": [256], "dtype": "float32"}, {"name": "PartitionedCall/PartitionedCall/model/tf_conv_33/conv2d_33/Conv2D/ReadVariableOp", "shape": [1, 1, 256, 128], "dtype": "float32"}, {"name": "PartitionedCall/PartitionedCall/model/tf_conv_33/conv2d_33/BiasAdd/ReadVariableOp", "shape": [128], "dtype": "float32"}, {"name": "PartitionedCall/PartitionedCall/model/tf_concat_3/concat/axis", "shape": [], "dtype": "int32"}, {"name": "PartitionedCall/PartitionedCall/model/tfc3_7/tf_conv_53/conv2d_53/Conv2D/ReadVariableOp", "shape": [1, 1, 256, 128], "dtype": "float32"}, {"name": "PartitionedCall/PartitionedCall/model/tfc3_7/tf_conv_53/conv2d_53/BiasAdd/ReadVariableOp", "shape": [128], "dtype": "float32"}, {"name": "PartitionedCall/PartitionedCall/model/tfc3_7/concat/axis", "shape": [], "dtype": "int32"}, {"name": "PartitionedCall/PartitionedCall/model/tfc3_7/tf_conv_54/conv2d_54/Conv2D/ReadVariableOp", "shape": [1, 1, 256, 256], "dtype": "float32"}, {"name": "PartitionedCall/PartitionedCall/model/tfc3_7/tf_conv_54/conv2d_54/BiasAdd/ReadVariableOp", "shape": [256], "dtype": "float32"}, {"name": "PartitionedCall/PartitionedCall/model/tf_detect/tf_conv2d_2/conv2d_59/Conv2D/ReadVariableOp", "shape": [1, 1, 256, 51], "dtype": "float32"}, {"name": "PartitionedCall/PartitionedCall/model/tf_detect/tf_conv2d_2/conv2d_59/BiasAdd/ReadVariableOp", "shape": [51], "dtype": "float32"}, {"name": "PartitionedCall/PartitionedCall/model/tf_detect/Reshape_4/shape_1", "shape": [4], "dtype": "int32"}, {"name": "PartitionedCall/PartitionedCall/model/tf_detect/strided_slice_20/stack", "shape": [2], "dtype": "int32"}, {"name": "PartitionedCall/PartitionedCall/model/tf_detect/strided_slice_20/stack_1", "shape": [2], "dtype": "int32"}, {"name": "PartitionedCall/PartitionedCall/model/tf_detect/strided_slice_20/stack_2", "shape": [2], "dtype": "int32"}, {"name": "PartitionedCall/PartitionedCall/model/tf_detect/concat_2/axis", "shape": [], "dtype": "int32"}, {"name": "PartitionedCall/PartitionedCall/model/tf_detect/Reshape_5/shape_1", "shape": [3], "dtype": "int32"}, {"name": "PartitionedCall/PartitionedCall/model/tf_detect/concat_3/axis", "shape": [], "dtype": "int32"}]}]}